{"weightsManifest": [{"paths": ["group1-shard1of3.bin", "group1-shard2of3.bin", "group1-shard3of3.bin"], "weights": [{"dtype": "float32", "shape": [3, 3, 3, 16], "name": "conv2d/kernel"}, {"dtype": "float32", "shape": [16], "name": "conv2d/bias"}, {"dtype": "float32", "shape": [1, 1, 16, 8], "name": "conv2d_1/kernel"}, {"dtype": "float32", "shape": [8], "name": "conv2d_1/bias"}, {"dtype": "float32", "shape": [1, 1, 8, 16], "name": "conv2d_10/kernel"}, {"dtype": "float32", "shape": [16], "name": "conv2d_10/bias"}, {"dtype": "float32", "shape": [1, 1, 128, 256], "name": "conv2d_100/kernel"}, {"dtype": "float32", "shape": [256], "name": "conv2d_100/bias"}, {"dtype": "float32", "shape": [1, 1, 256, 128], "name": "conv2d_101/kernel"}, {"dtype": "float32", "shape": [128], "name": "conv2d_101/bias"}, {"dtype": "float32", "shape": [1, 1, 128, 256], "name": "conv2d_102/kernel"}, {"dtype": "float32", "shape": [256], "name": "conv2d_102/bias"}, {"dtype": "float32", "shape": [1, 1, 256, 128], "name": "conv2d_103/kernel"}, {"dtype": "float32", "shape": [128], "name": "conv2d_103/bias"}, {"dtype": "float32", "shape": [1, 1, 128, 256], "name": "conv2d_104/kernel"}, {"dtype": "float32", "shape": [256], "name": "conv2d_104/bias"}, {"dtype": "float32", "shape": [1, 1, 256, 128], "name": "conv2d_105/kernel"}, {"dtype": "float32", "shape": [128], "name": "conv2d_105/bias"}, {"dtype": "float32", "shape": [1, 1, 128, 256], "name": "conv2d_106/kernel"}, {"dtype": "float32", "shape": [256], "name": "conv2d_106/bias"}, {"dtype": "float32", "shape": [2, 2, 256, 128], "name": "conv2d_107/kernel"}, {"dtype": "float32", "shape": [128], "name": "conv2d_107/bias"}, {"dtype": "float32", "shape": [1, 1, 128, 256], "name": "conv2d_108/kernel"}, {"dtype": "float32", "shape": [256], "name": "conv2d_108/bias"}, {"dtype": "float32", "shape": [1, 1, 256, 128], "name": "conv2d_109/kernel"}, {"dtype": "float32", "shape": [128], "name": "conv2d_109/bias"}, {"dtype": "float32", "shape": [1, 1, 16, 8], "name": "conv2d_11/kernel"}, {"dtype": "float32", "shape": [8], "name": "conv2d_11/bias"}, {"dtype": "float32", "shape": [1, 1, 128, 256], "name": "conv2d_110/kernel"}, {"dtype": "float32", "shape": [256], "name": "conv2d_110/bias"}, {"dtype": "float32", "shape": [1, 1, 256, 128], "name": "conv2d_111/kernel"}, {"dtype": "float32", "shape": [128], "name": "conv2d_111/bias"}, {"dtype": "float32", "shape": [1, 1, 128, 256], "name": "conv2d_112/kernel"}, {"dtype": "float32", "shape": [256], "name": "conv2d_112/bias"}, {"dtype": "float32", "shape": [1, 1, 256, 128], "name": "conv2d_113/kernel"}, {"dtype": "float32", "shape": [128], "name": "conv2d_113/bias"}, {"dtype": "float32", "shape": [1, 1, 128, 256], "name": "conv2d_114/kernel"}, {"dtype": "float32", "shape": [256], "name": "conv2d_114/bias"}, {"dtype": "float32", "shape": [1, 1, 256, 128], "name": "conv2d_115/kernel"}, {"dtype": "float32", "shape": [128], "name": "conv2d_115/bias"}, {"dtype": "float32", "shape": [1, 1, 128, 256], "name": "conv2d_116/kernel"}, {"dtype": "float32", "shape": [256], "name": "conv2d_116/bias"}, {"dtype": "float32", "shape": [1, 1, 256, 128], "name": "conv2d_117/kernel"}, {"dtype": "float32", "shape": [128], "name": "conv2d_117/bias"}, {"dtype": "float32", "shape": [1, 1, 128, 256], "name": "conv2d_118/kernel"}, {"dtype": "float32", "shape": [256], "name": "conv2d_118/bias"}, {"dtype": "float32", "shape": [1, 1, 256, 128], "name": "conv2d_119/kernel"}, {"dtype": "float32", "shape": [128], "name": "conv2d_119/bias"}, {"dtype": "float32", "shape": [1, 1, 8, 16], "name": "conv2d_12/kernel"}, {"dtype": "float32", "shape": [16], "name": "conv2d_12/bias"}, {"dtype": "float32", "shape": [1, 1, 128, 256], "name": "conv2d_120/kernel"}, {"dtype": "float32", "shape": [256], "name": "conv2d_120/bias"}, {"dtype": "float32", "shape": [1, 1, 256, 128], "name": "conv2d_121/kernel"}, {"dtype": "float32", "shape": [128], "name": "conv2d_121/bias"}, {"dtype": "float32", "shape": [1, 1, 128, 256], "name": "conv2d_122/kernel"}, {"dtype": "float32", "shape": [256], "name": "conv2d_122/bias"}, {"dtype": "float32", "shape": [1, 1, 256, 128], "name": "conv2d_123/kernel"}, {"dtype": "float32", "shape": [128], "name": "conv2d_123/bias"}, {"dtype": "float32", "shape": [1, 1, 128, 256], "name": "conv2d_124/kernel"}, {"dtype": "float32", "shape": [256], "name": "conv2d_124/bias"}, {"dtype": "float32", "shape": [2, 2, 256, 1], "name": "conv2d_125/kernel"}, {"dtype": "float32", "shape": [1], "name": "conv2d_125/bias"}, {"dtype": "float32", "shape": [2, 2, 256, 42], "name": "conv2d_126/kernel"}, {"dtype": "float32", "shape": [42], "name": "conv2d_126/bias"}, {"dtype": "float32", "shape": [1, 1, 16, 8], "name": "conv2d_13/kernel"}, {"dtype": "float32", "shape": [8], "name": "conv2d_13/bias"}, {"dtype": "float32", "shape": [1, 1, 8, 16], "name": "conv2d_14/kernel"}, {"dtype": "float32", "shape": [16], "name": "conv2d_14/bias"}, {"dtype": "float32", "shape": [1, 1, 16, 8], "name": "conv2d_15/kernel"}, {"dtype": "float32", "shape": [8], "name": "conv2d_15/bias"}, {"dtype": "float32", "shape": [1, 1, 8, 16], "name": "conv2d_16/kernel"}, {"dtype": "float32", "shape": [16], "name": "conv2d_16/bias"}, {"dtype": "float32", "shape": [2, 2, 16, 16], "name": "conv2d_17/kernel"}, {"dtype": "float32", "shape": [16], "name": "conv2d_17/bias"}, {"dtype": "float32", "shape": [1, 1, 16, 32], "name": "conv2d_18/kernel"}, {"dtype": "float32", "shape": [32], "name": "conv2d_18/bias"}, {"dtype": "float32", "shape": [1, 1, 32, 16], "name": "conv2d_19/kernel"}, {"dtype": "float32", "shape": [16], "name": "conv2d_19/bias"}, {"dtype": "float32", "shape": [1, 1, 8, 16], "name": "conv2d_2/kernel"}, {"dtype": "float32", "shape": [16], "name": "conv2d_2/bias"}, {"dtype": "float32", "shape": [1, 1, 16, 32], "name": "conv2d_20/kernel"}, {"dtype": "float32", "shape": [32], "name": "conv2d_20/bias"}, {"dtype": "float32", "shape": [1, 1, 32, 16], "name": "conv2d_21/kernel"}, {"dtype": "float32", "shape": [16], "name": "conv2d_21/bias"}, {"dtype": "float32", "shape": [1, 1, 16, 32], "name": "conv2d_22/kernel"}, {"dtype": "float32", "shape": [32], "name": "conv2d_22/bias"}, {"dtype": "float32", "shape": [1, 1, 32, 16], "name": "conv2d_23/kernel"}, {"dtype": "float32", "shape": [16], "name": "conv2d_23/bias"}, {"dtype": "float32", "shape": [1, 1, 16, 32], "name": "conv2d_24/kernel"}, {"dtype": "float32", "shape": [32], "name": "conv2d_24/bias"}, {"dtype": "float32", "shape": [1, 1, 32, 16], "name": "conv2d_25/kernel"}, {"dtype": "float32", "shape": [16], "name": "conv2d_25/bias"}, {"dtype": "float32", "shape": [1, 1, 16, 32], "name": "conv2d_26/kernel"}, {"dtype": "float32", "shape": [32], "name": "conv2d_26/bias"}, {"dtype": "float32", "shape": [1, 1, 32, 16], "name": "conv2d_27/kernel"}, {"dtype": "float32", "shape": [16], "name": "conv2d_27/bias"}, {"dtype": "float32", "shape": [1, 1, 16, 32], "name": "conv2d_28/kernel"}, {"dtype": "float32", "shape": [32], "name": "conv2d_28/bias"}, {"dtype": "float32", "shape": [1, 1, 32, 16], "name": "conv2d_29/kernel"}, {"dtype": "float32", "shape": [16], "name": "conv2d_29/bias"}, {"dtype": "float32", "shape": [1, 1, 16, 8], "name": "conv2d_3/kernel"}, {"dtype": "float32", "shape": [8], "name": "conv2d_3/bias"}, {"dtype": "float32", "shape": [1, 1, 16, 32], "name": "conv2d_30/kernel"}, {"dtype": "float32", "shape": [32], "name": "conv2d_30/bias"}, {"dtype": "float32", "shape": [1, 1, 32, 16], "name": "conv2d_31/kernel"}, {"dtype": "float32", "shape": [16], "name": "conv2d_31/bias"}, {"dtype": "float32", "shape": [1, 1, 16, 32], "name": "conv2d_32/kernel"}, {"dtype": "float32", "shape": [32], "name": "conv2d_32/bias"}, {"dtype": "float32", "shape": [1, 1, 32, 16], "name": "conv2d_33/kernel"}, {"dtype": "float32", "shape": [16], "name": "conv2d_33/bias"}, {"dtype": "float32", "shape": [1, 1, 16, 32], "name": "conv2d_34/kernel"}, {"dtype": "float32", "shape": [32], "name": "conv2d_34/bias"}, {"dtype": "float32", "shape": [2, 2, 32, 32], "name": "conv2d_35/kernel"}, {"dtype": "float32", "shape": [32], "name": "conv2d_35/bias"}, {"dtype": "float32", "shape": [1, 1, 32, 64], "name": "conv2d_36/kernel"}, {"dtype": "float32", "shape": [64], "name": "conv2d_36/bias"}, {"dtype": "float32", "shape": [1, 1, 64, 32], "name": "conv2d_37/kernel"}, {"dtype": "float32", "shape": [32], "name": "conv2d_37/bias"}, {"dtype": "float32", "shape": [1, 1, 32, 64], "name": "conv2d_38/kernel"}, {"dtype": "float32", "shape": [64], "name": "conv2d_38/bias"}, {"dtype": "float32", "shape": [1, 1, 64, 32], "name": "conv2d_39/kernel"}, {"dtype": "float32", "shape": [32], "name": "conv2d_39/bias"}, {"dtype": "float32", "shape": [1, 1, 8, 16], "name": "conv2d_4/kernel"}, {"dtype": "float32", "shape": [16], "name": "conv2d_4/bias"}, {"dtype": "float32", "shape": [1, 1, 32, 64], "name": "conv2d_40/kernel"}, {"dtype": "float32", "shape": [64], "name": "conv2d_40/bias"}, {"dtype": "float32", "shape": [1, 1, 64, 32], "name": "conv2d_41/kernel"}, {"dtype": "float32", "shape": [32], "name": "conv2d_41/bias"}, {"dtype": "float32", "shape": [1, 1, 32, 64], "name": "conv2d_42/kernel"}, {"dtype": "float32", "shape": [64], "name": "conv2d_42/bias"}, {"dtype": "float32", "shape": [1, 1, 64, 32], "name": "conv2d_43/kernel"}, {"dtype": "float32", "shape": [32], "name": "conv2d_43/bias"}, {"dtype": "float32", "shape": [1, 1, 32, 64], "name": "conv2d_44/kernel"}, {"dtype": "float32", "shape": [64], "name": "conv2d_44/bias"}, {"dtype": "float32", "shape": [1, 1, 64, 32], "name": "conv2d_45/kernel"}, {"dtype": "float32", "shape": [32], "name": "conv2d_45/bias"}, {"dtype": "float32", "shape": [1, 1, 32, 64], "name": "conv2d_46/kernel"}, {"dtype": "float32", "shape": [64], "name": "conv2d_46/bias"}, {"dtype": "float32", "shape": [1, 1, 64, 32], "name": "conv2d_47/kernel"}, {"dtype": "float32", "shape": [32], "name": "conv2d_47/bias"}, {"dtype": "float32", "shape": [1, 1, 32, 64], "name": "conv2d_48/kernel"}, {"dtype": "float32", "shape": [64], "name": "conv2d_48/bias"}, {"dtype": "float32", "shape": [1, 1, 64, 32], "name": "conv2d_49/kernel"}, {"dtype": "float32", "shape": [32], "name": "conv2d_49/bias"}, {"dtype": "float32", "shape": [1, 1, 16, 8], "name": "conv2d_5/kernel"}, {"dtype": "float32", "shape": [8], "name": "conv2d_5/bias"}, {"dtype": "float32", "shape": [1, 1, 32, 64], "name": "conv2d_50/kernel"}, {"dtype": "float32", "shape": [64], "name": "conv2d_50/bias"}, {"dtype": "float32", "shape": [1, 1, 64, 32], "name": "conv2d_51/kernel"}, {"dtype": "float32", "shape": [32], "name": "conv2d_51/bias"}, {"dtype": "float32", "shape": [1, 1, 32, 64], "name": "conv2d_52/kernel"}, {"dtype": "float32", "shape": [64], "name": "conv2d_52/bias"}, {"dtype": "float32", "shape": [2, 2, 64, 128], "name": "conv2d_53/kernel"}, {"dtype": "float32", "shape": [128], "name": "conv2d_53/bias"}, {"dtype": "float32", "shape": [1, 1, 128, 256], "name": "conv2d_54/kernel"}, {"dtype": "float32", "shape": [256], "name": "conv2d_54/bias"}, {"dtype": "float32", "shape": [1, 1, 256, 128], "name": "conv2d_55/kernel"}, {"dtype": "float32", "shape": [128], "name": "conv2d_55/bias"}, {"dtype": "float32", "shape": [1, 1, 128, 256], "name": "conv2d_56/kernel"}, {"dtype": "float32", "shape": [256], "name": "conv2d_56/bias"}, {"dtype": "float32", "shape": [1, 1, 256, 128], "name": "conv2d_57/kernel"}, {"dtype": "float32", "shape": [128], "name": "conv2d_57/bias"}, {"dtype": "float32", "shape": [1, 1, 128, 256], "name": "conv2d_58/kernel"}, {"dtype": "float32", "shape": [256], "name": "conv2d_58/bias"}, {"dtype": "float32", "shape": [1, 1, 256, 128], "name": "conv2d_59/kernel"}, {"dtype": "float32", "shape": [128], "name": "conv2d_59/bias"}, {"dtype": "float32", "shape": [1, 1, 8, 16], "name": "conv2d_6/kernel"}, {"dtype": "float32", "shape": [16], "name": "conv2d_6/bias"}, {"dtype": "float32", "shape": [1, 1, 128, 256], "name": "conv2d_60/kernel"}, {"dtype": "float32", "shape": [256], "name": "conv2d_60/bias"}, {"dtype": "float32", "shape": [1, 1, 256, 128], "name": "conv2d_61/kernel"}, {"dtype": "float32", "shape": [128], "name": "conv2d_61/bias"}, {"dtype": "float32", "shape": [1, 1, 128, 256], "name": "conv2d_62/kernel"}, {"dtype": "float32", "shape": [256], "name": "conv2d_62/bias"}, {"dtype": "float32", "shape": [1, 1, 256, 128], "name": "conv2d_63/kernel"}, {"dtype": "float32", "shape": [128], "name": "conv2d_63/bias"}, {"dtype": "float32", "shape": [1, 1, 128, 256], "name": "conv2d_64/kernel"}, {"dtype": "float32", "shape": [256], "name": "conv2d_64/bias"}, {"dtype": "float32", "shape": [1, 1, 256, 128], "name": "conv2d_65/kernel"}, {"dtype": "float32", "shape": [128], "name": "conv2d_65/bias"}, {"dtype": "float32", "shape": [1, 1, 128, 256], "name": "conv2d_66/kernel"}, {"dtype": "float32", "shape": [256], "name": "conv2d_66/bias"}, {"dtype": "float32", "shape": [1, 1, 256, 128], "name": "conv2d_67/kernel"}, {"dtype": "float32", "shape": [128], "name": "conv2d_67/bias"}, {"dtype": "float32", "shape": [1, 1, 128, 256], "name": "conv2d_68/kernel"}, {"dtype": "float32", "shape": [256], "name": "conv2d_68/bias"}, {"dtype": "float32", "shape": [1, 1, 256, 128], "name": "conv2d_69/kernel"}, {"dtype": "float32", "shape": [128], "name": "conv2d_69/bias"}, {"dtype": "float32", "shape": [1, 1, 16, 8], "name": "conv2d_7/kernel"}, {"dtype": "float32", "shape": [8], "name": "conv2d_7/bias"}, {"dtype": "float32", "shape": [1, 1, 128, 256], "name": "conv2d_70/kernel"}, {"dtype": "float32", "shape": [256], "name": "conv2d_70/bias"}, {"dtype": "float32", "shape": [2, 2, 256, 128], "name": "conv2d_71/kernel"}, {"dtype": "float32", "shape": [128], "name": "conv2d_71/bias"}, {"dtype": "float32", "shape": [1, 1, 128, 256], "name": "conv2d_72/kernel"}, {"dtype": "float32", "shape": [256], "name": "conv2d_72/bias"}, {"dtype": "float32", "shape": [1, 1, 256, 128], "name": "conv2d_73/kernel"}, {"dtype": "float32", "shape": [128], "name": "conv2d_73/bias"}, {"dtype": "float32", "shape": [1, 1, 128, 256], "name": "conv2d_74/kernel"}, {"dtype": "float32", "shape": [256], "name": "conv2d_74/bias"}, {"dtype": "float32", "shape": [1, 1, 256, 128], "name": "conv2d_75/kernel"}, {"dtype": "float32", "shape": [128], "name": "conv2d_75/bias"}, {"dtype": "float32", "shape": [1, 1, 128, 256], "name": "conv2d_76/kernel"}, {"dtype": "float32", "shape": [256], "name": "conv2d_76/bias"}, {"dtype": "float32", "shape": [1, 1, 256, 128], "name": "conv2d_77/kernel"}, {"dtype": "float32", "shape": [128], "name": "conv2d_77/bias"}, {"dtype": "float32", "shape": [1, 1, 128, 256], "name": "conv2d_78/kernel"}, {"dtype": "float32", "shape": [256], "name": "conv2d_78/bias"}, {"dtype": "float32", "shape": [1, 1, 256, 128], "name": "conv2d_79/kernel"}, {"dtype": "float32", "shape": [128], "name": "conv2d_79/bias"}, {"dtype": "float32", "shape": [1, 1, 8, 16], "name": "conv2d_8/kernel"}, {"dtype": "float32", "shape": [16], "name": "conv2d_8/bias"}, {"dtype": "float32", "shape": [1, 1, 128, 256], "name": "conv2d_80/kernel"}, {"dtype": "float32", "shape": [256], "name": "conv2d_80/bias"}, {"dtype": "float32", "shape": [1, 1, 256, 128], "name": "conv2d_81/kernel"}, {"dtype": "float32", "shape": [128], "name": "conv2d_81/bias"}, {"dtype": "float32", "shape": [1, 1, 128, 256], "name": "conv2d_82/kernel"}, {"dtype": "float32", "shape": [256], "name": "conv2d_82/bias"}, {"dtype": "float32", "shape": [1, 1, 256, 128], "name": "conv2d_83/kernel"}, {"dtype": "float32", "shape": [128], "name": "conv2d_83/bias"}, {"dtype": "float32", "shape": [1, 1, 128, 256], "name": "conv2d_84/kernel"}, {"dtype": "float32", "shape": [256], "name": "conv2d_84/bias"}, {"dtype": "float32", "shape": [1, 1, 256, 128], "name": "conv2d_85/kernel"}, {"dtype": "float32", "shape": [128], "name": "conv2d_85/bias"}, {"dtype": "float32", "shape": [1, 1, 128, 256], "name": "conv2d_86/kernel"}, {"dtype": "float32", "shape": [256], "name": "conv2d_86/bias"}, {"dtype": "float32", "shape": [1, 1, 256, 128], "name": "conv2d_87/kernel"}, {"dtype": "float32", "shape": [128], "name": "conv2d_87/bias"}, {"dtype": "float32", "shape": [1, 1, 128, 256], "name": "conv2d_88/kernel"}, {"dtype": "float32", "shape": [256], "name": "conv2d_88/bias"}, {"dtype": "float32", "shape": [2, 2, 256, 128], "name": "conv2d_89/kernel"}, {"dtype": "float32", "shape": [128], "name": "conv2d_89/bias"}, {"dtype": "float32", "shape": [1, 1, 16, 8], "name": "conv2d_9/kernel"}, {"dtype": "float32", "shape": [8], "name": "conv2d_9/bias"}, {"dtype": "float32", "shape": [1, 1, 128, 256], "name": "conv2d_90/kernel"}, {"dtype": "float32", "shape": [256], "name": "conv2d_90/bias"}, {"dtype": "float32", "shape": [1, 1, 256, 128], "name": "conv2d_91/kernel"}, {"dtype": "float32", "shape": [128], "name": "conv2d_91/bias"}, {"dtype": "float32", "shape": [1, 1, 128, 256], "name": "conv2d_92/kernel"}, {"dtype": "float32", "shape": [256], "name": "conv2d_92/bias"}, {"dtype": "float32", "shape": [1, 1, 256, 128], "name": "conv2d_93/kernel"}, {"dtype": "float32", "shape": [128], "name": "conv2d_93/bias"}, {"dtype": "float32", "shape": [1, 1, 128, 256], "name": "conv2d_94/kernel"}, {"dtype": "float32", "shape": [256], "name": "conv2d_94/bias"}, {"dtype": "float32", "shape": [1, 1, 256, 128], "name": "conv2d_95/kernel"}, {"dtype": "float32", "shape": [128], "name": "conv2d_95/bias"}, {"dtype": "float32", "shape": [1, 1, 128, 256], "name": "conv2d_96/kernel"}, {"dtype": "float32", "shape": [256], "name": "conv2d_96/bias"}, {"dtype": "float32", "shape": [1, 1, 256, 128], "name": "conv2d_97/kernel"}, {"dtype": "float32", "shape": [128], "name": "conv2d_97/bias"}, {"dtype": "float32", "shape": [1, 1, 128, 256], "name": "conv2d_98/kernel"}, {"dtype": "float32", "shape": [256], "name": "conv2d_98/bias"}, {"dtype": "float32", "shape": [1, 1, 256, 128], "name": "conv2d_99/kernel"}, {"dtype": "float32", "shape": [128], "name": "conv2d_99/bias"}, {"dtype": "float32", "shape": [3, 3, 8, 1], "name": "depthwise_conv2d/depthwise_kernel"}, {"dtype": "float32", "shape": [8], "name": "depthwise_conv2d/bias"}, {"dtype": "float32", "shape": [3, 3, 8, 1], "name": "depthwise_conv2d_1/depthwise_kernel"}, {"dtype": "float32", "shape": [8], "name": "depthwise_conv2d_1/bias"}, {"dtype": "float32", "shape": [3, 3, 16, 1], "name": "depthwise_conv2d_10/depthwise_kernel"}, {"dtype": "float32", "shape": [16], "name": "depthwise_conv2d_10/bias"}, {"dtype": "float32", "shape": [3, 3, 16, 1], "name": "depthwise_conv2d_11/depthwise_kernel"}, {"dtype": "float32", "shape": [16], "name": "depthwise_conv2d_11/bias"}, {"dtype": "float32", "shape": [3, 3, 16, 1], "name": "depthwise_conv2d_12/depthwise_kernel"}, {"dtype": "float32", "shape": [16], "name": "depthwise_conv2d_12/bias"}, {"dtype": "float32", "shape": [3, 3, 16, 1], "name": "depthwise_conv2d_13/depthwise_kernel"}, {"dtype": "float32", "shape": [16], "name": "depthwise_conv2d_13/bias"}, {"dtype": "float32", "shape": [3, 3, 16, 1], "name": "depthwise_conv2d_14/depthwise_kernel"}, {"dtype": "float32", "shape": [16], "name": "depthwise_conv2d_14/bias"}, {"dtype": "float32", "shape": [3, 3, 16, 1], "name": "depthwise_conv2d_15/depthwise_kernel"}, {"dtype": "float32", "shape": [16], "name": "depthwise_conv2d_15/bias"}, {"dtype": "float32", "shape": [3, 3, 16, 1], "name": "depthwise_conv2d_16/depthwise_kernel"}, {"dtype": "float32", "shape": [16], "name": "depthwise_conv2d_16/bias"}, {"dtype": "float32", "shape": [3, 3, 32, 1], "name": "depthwise_conv2d_17/depthwise_kernel"}, {"dtype": "float32", "shape": [32], "name": "depthwise_conv2d_17/bias"}, {"dtype": "float32", "shape": [3, 3, 32, 1], "name": "depthwise_conv2d_18/depthwise_kernel"}, {"dtype": "float32", "shape": [32], "name": "depthwise_conv2d_18/bias"}, {"dtype": "float32", "shape": [3, 3, 32, 1], "name": "depthwise_conv2d_19/depthwise_kernel"}, {"dtype": "float32", "shape": [32], "name": "depthwise_conv2d_19/bias"}, {"dtype": "float32", "shape": [3, 3, 8, 1], "name": "depthwise_conv2d_2/depthwise_kernel"}, {"dtype": "float32", "shape": [8], "name": "depthwise_conv2d_2/bias"}, {"dtype": "float32", "shape": [3, 3, 32, 1], "name": "depthwise_conv2d_20/depthwise_kernel"}, {"dtype": "float32", "shape": [32], "name": "depthwise_conv2d_20/bias"}, {"dtype": "float32", "shape": [3, 3, 32, 1], "name": "depthwise_conv2d_21/depthwise_kernel"}, {"dtype": "float32", "shape": [32], "name": "depthwise_conv2d_21/bias"}, {"dtype": "float32", "shape": [3, 3, 32, 1], "name": "depthwise_conv2d_22/depthwise_kernel"}, {"dtype": "float32", "shape": [32], "name": "depthwise_conv2d_22/bias"}, {"dtype": "float32", "shape": [3, 3, 32, 1], "name": "depthwise_conv2d_23/depthwise_kernel"}, {"dtype": "float32", "shape": [32], "name": "depthwise_conv2d_23/bias"}, {"dtype": "float32", "shape": [3, 3, 32, 1], "name": "depthwise_conv2d_24/depthwise_kernel"}, {"dtype": "float32", "shape": [32], "name": "depthwise_conv2d_24/bias"}, {"dtype": "float32", "shape": [3, 3, 32, 1], "name": "depthwise_conv2d_25/depthwise_kernel"}, {"dtype": "float32", "shape": [32], "name": "depthwise_conv2d_25/bias"}, {"dtype": "float32", "shape": [3, 3, 128, 1], "name": "depthwise_conv2d_26/depthwise_kernel"}, {"dtype": "float32", "shape": [128], "name": "depthwise_conv2d_26/bias"}, {"dtype": "float32", "shape": [3, 3, 128, 1], "name": "depthwise_conv2d_27/depthwise_kernel"}, {"dtype": "float32", "shape": [128], "name": "depthwise_conv2d_27/bias"}, {"dtype": "float32", "shape": [3, 3, 128, 1], "name": "depthwise_conv2d_28/depthwise_kernel"}, {"dtype": "float32", "shape": [128], "name": "depthwise_conv2d_28/bias"}, {"dtype": "float32", "shape": [3, 3, 128, 1], "name": "depthwise_conv2d_29/depthwise_kernel"}, {"dtype": "float32", "shape": [128], "name": "depthwise_conv2d_29/bias"}, {"dtype": "float32", "shape": [3, 3, 8, 1], "name": "depthwise_conv2d_3/depthwise_kernel"}, {"dtype": "float32", "shape": [8], "name": "depthwise_conv2d_3/bias"}, {"dtype": "float32", "shape": [3, 3, 128, 1], "name": "depthwise_conv2d_30/depthwise_kernel"}, {"dtype": "float32", "shape": [128], "name": "depthwise_conv2d_30/bias"}, {"dtype": "float32", "shape": [3, 3, 128, 1], "name": "depthwise_conv2d_31/depthwise_kernel"}, {"dtype": "float32", "shape": [128], "name": "depthwise_conv2d_31/bias"}, {"dtype": "float32", "shape": [3, 3, 128, 1], "name": "depthwise_conv2d_32/depthwise_kernel"}, {"dtype": "float32", "shape": [128], "name": "depthwise_conv2d_32/bias"}, {"dtype": "float32", "shape": [3, 3, 128, 1], "name": "depthwise_conv2d_33/depthwise_kernel"}, {"dtype": "float32", "shape": [128], "name": "depthwise_conv2d_33/bias"}, {"dtype": "float32", "shape": [3, 3, 128, 1], "name": "depthwise_conv2d_34/depthwise_kernel"}, {"dtype": "float32", "shape": [128], "name": "depthwise_conv2d_34/bias"}, {"dtype": "float32", "shape": [3, 3, 128, 1], "name": "depthwise_conv2d_35/depthwise_kernel"}, {"dtype": "float32", "shape": [128], "name": "depthwise_conv2d_35/bias"}, {"dtype": "float32", "shape": [3, 3, 128, 1], "name": "depthwise_conv2d_36/depthwise_kernel"}, {"dtype": "float32", "shape": [128], "name": "depthwise_conv2d_36/bias"}, {"dtype": "float32", "shape": [3, 3, 128, 1], "name": "depthwise_conv2d_37/depthwise_kernel"}, {"dtype": "float32", "shape": [128], "name": "depthwise_conv2d_37/bias"}, {"dtype": "float32", "shape": [3, 3, 128, 1], "name": "depthwise_conv2d_38/depthwise_kernel"}, {"dtype": "float32", "shape": [128], "name": "depthwise_conv2d_38/bias"}, {"dtype": "float32", "shape": [3, 3, 128, 1], "name": "depthwise_conv2d_39/depthwise_kernel"}, {"dtype": "float32", "shape": [128], "name": "depthwise_conv2d_39/bias"}, {"dtype": "float32", "shape": [3, 3, 8, 1], "name": "depthwise_conv2d_4/depthwise_kernel"}, {"dtype": "float32", "shape": [8], "name": "depthwise_conv2d_4/bias"}, {"dtype": "float32", "shape": [3, 3, 128, 1], "name": "depthwise_conv2d_40/depthwise_kernel"}, {"dtype": "float32", "shape": [128], "name": "depthwise_conv2d_40/bias"}, {"dtype": "float32", "shape": [3, 3, 128, 1], "name": "depthwise_conv2d_41/depthwise_kernel"}, {"dtype": "float32", "shape": [128], "name": "depthwise_conv2d_41/bias"}, {"dtype": "float32", "shape": [3, 3, 128, 1], "name": "depthwise_conv2d_42/depthwise_kernel"}, {"dtype": "float32", "shape": [128], "name": "depthwise_conv2d_42/bias"}, {"dtype": "float32", "shape": [3, 3, 128, 1], "name": "depthwise_conv2d_43/depthwise_kernel"}, {"dtype": "float32", "shape": [128], "name": "depthwise_conv2d_43/bias"}, {"dtype": "float32", "shape": [3, 3, 128, 1], "name": "depthwise_conv2d_44/depthwise_kernel"}, {"dtype": "float32", "shape": [128], "name": "depthwise_conv2d_44/bias"}, {"dtype": "float32", "shape": [3, 3, 128, 1], "name": "depthwise_conv2d_45/depthwise_kernel"}, {"dtype": "float32", "shape": [128], "name": "depthwise_conv2d_45/bias"}, {"dtype": "float32", "shape": [3, 3, 128, 1], "name": "depthwise_conv2d_46/depthwise_kernel"}, {"dtype": "float32", "shape": [128], "name": "depthwise_conv2d_46/bias"}, {"dtype": "float32", "shape": [3, 3, 128, 1], "name": "depthwise_conv2d_47/depthwise_kernel"}, {"dtype": "float32", "shape": [128], "name": "depthwise_conv2d_47/bias"}, {"dtype": "float32", "shape": [3, 3, 128, 1], "name": "depthwise_conv2d_48/depthwise_kernel"}, {"dtype": "float32", "shape": [128], "name": "depthwise_conv2d_48/bias"}, {"dtype": "float32", "shape": [3, 3, 128, 1], "name": "depthwise_conv2d_49/depthwise_kernel"}, {"dtype": "float32", "shape": [128], "name": "depthwise_conv2d_49/bias"}, {"dtype": "float32", "shape": [3, 3, 8, 1], "name": "depthwise_conv2d_5/depthwise_kernel"}, {"dtype": "float32", "shape": [8], "name": "depthwise_conv2d_5/bias"}, {"dtype": "float32", "shape": [3, 3, 128, 1], "name": "depthwise_conv2d_50/depthwise_kernel"}, {"dtype": "float32", "shape": [128], "name": "depthwise_conv2d_50/bias"}, {"dtype": "float32", "shape": [3, 3, 128, 1], "name": "depthwise_conv2d_51/depthwise_kernel"}, {"dtype": "float32", "shape": [128], "name": "depthwise_conv2d_51/bias"}, {"dtype": "float32", "shape": [3, 3, 128, 1], "name": "depthwise_conv2d_52/depthwise_kernel"}, {"dtype": "float32", "shape": [128], "name": "depthwise_conv2d_52/bias"}, {"dtype": "float32", "shape": [3, 3, 128, 1], "name": "depthwise_conv2d_53/depthwise_kernel"}, {"dtype": "float32", "shape": [128], "name": "depthwise_conv2d_53/bias"}, {"dtype": "float32", "shape": [3, 3, 128, 1], "name": "depthwise_conv2d_54/depthwise_kernel"}, {"dtype": "float32", "shape": [128], "name": "depthwise_conv2d_54/bias"}, {"dtype": "float32", "shape": [3, 3, 128, 1], "name": "depthwise_conv2d_55/depthwise_kernel"}, {"dtype": "float32", "shape": [128], "name": "depthwise_conv2d_55/bias"}, {"dtype": "float32", "shape": [3, 3, 128, 1], "name": "depthwise_conv2d_56/depthwise_kernel"}, {"dtype": "float32", "shape": [128], "name": "depthwise_conv2d_56/bias"}, {"dtype": "float32", "shape": [3, 3, 128, 1], "name": "depthwise_conv2d_57/depthwise_kernel"}, {"dtype": "float32", "shape": [128], "name": "depthwise_conv2d_57/bias"}, {"dtype": "float32", "shape": [3, 3, 128, 1], "name": "depthwise_conv2d_58/depthwise_kernel"}, {"dtype": "float32", "shape": [128], "name": "depthwise_conv2d_58/bias"}, {"dtype": "float32", "shape": [3, 3, 128, 1], "name": "depthwise_conv2d_59/depthwise_kernel"}, {"dtype": "float32", "shape": [128], "name": "depthwise_conv2d_59/bias"}, {"dtype": "float32", "shape": [3, 3, 8, 1], "name": "depthwise_conv2d_6/depthwise_kernel"}, {"dtype": "float32", "shape": [8], "name": "depthwise_conv2d_6/bias"}, {"dtype": "float32", "shape": [3, 3, 128, 1], "name": "depthwise_conv2d_60/depthwise_kernel"}, {"dtype": "float32", "shape": [128], "name": "depthwise_conv2d_60/bias"}, {"dtype": "float32", "shape": [3, 3, 128, 1], "name": "depthwise_conv2d_61/depthwise_kernel"}, {"dtype": "float32", "shape": [128], "name": "depthwise_conv2d_61/bias"}, {"dtype": "float32", "shape": [3, 3, 8, 1], "name": "depthwise_conv2d_7/depthwise_kernel"}, {"dtype": "float32", "shape": [8], "name": "depthwise_conv2d_7/bias"}, {"dtype": "float32", "shape": [3, 3, 16, 1], "name": "depthwise_conv2d_8/depthwise_kernel"}, {"dtype": "float32", "shape": [16], "name": "depthwise_conv2d_8/bias"}, {"dtype": "float32", "shape": [3, 3, 16, 1], "name": "depthwise_conv2d_9/depthwise_kernel"}, {"dtype": "float32", "shape": [16], "name": "depthwise_conv2d_9/bias"}, {"dtype": "float32", "shape": [1, 1, 16], "name": "p_re_lu/alpha"}, {"dtype": "float32", "shape": [1, 1, 8], "name": "p_re_lu_1/alpha"}, {"dtype": "float32", "shape": [1, 1, 16], "name": "p_re_lu_10/alpha"}, {"dtype": "float32", "shape": [1, 1, 256], "name": "p_re_lu_100/alpha"}, {"dtype": "float32", "shape": [1, 1, 128], "name": "p_re_lu_101/alpha"}, {"dtype": "float32", "shape": [1, 1, 256], "name": "p_re_lu_102/alpha"}, {"dtype": "float32", "shape": [1, 1, 128], "name": "p_re_lu_103/alpha"}, {"dtype": "float32", "shape": [1, 1, 256], "name": "p_re_lu_104/alpha"}, {"dtype": "float32", "shape": [1, 1, 128], "name": "p_re_lu_105/alpha"}, {"dtype": "float32", "shape": [1, 1, 256], "name": "p_re_lu_106/alpha"}, {"dtype": "float32", "shape": [1, 1, 128], "name": "p_re_lu_107/alpha"}, {"dtype": "float32", "shape": [1, 1, 256], "name": "p_re_lu_108/alpha"}, {"dtype": "float32", "shape": [1, 1, 128], "name": "p_re_lu_109/alpha"}, {"dtype": "float32", "shape": [1, 1, 8], "name": "p_re_lu_11/alpha"}, {"dtype": "float32", "shape": [1, 1, 256], "name": "p_re_lu_110/alpha"}, {"dtype": "float32", "shape": [1, 1, 128], "name": "p_re_lu_111/alpha"}, {"dtype": "float32", "shape": [1, 1, 256], "name": "p_re_lu_112/alpha"}, {"dtype": "float32", "shape": [1, 1, 128], "name": "p_re_lu_113/alpha"}, {"dtype": "float32", "shape": [1, 1, 256], "name": "p_re_lu_114/alpha"}, {"dtype": "float32", "shape": [1, 1, 128], "name": "p_re_lu_115/alpha"}, {"dtype": "float32", "shape": [1, 1, 256], "name": "p_re_lu_116/alpha"}, {"dtype": "float32", "shape": [1, 1, 128], "name": "p_re_lu_117/alpha"}, {"dtype": "float32", "shape": [1, 1, 256], "name": "p_re_lu_118/alpha"}, {"dtype": "float32", "shape": [1, 1, 128], "name": "p_re_lu_119/alpha"}, {"dtype": "float32", "shape": [1, 1, 16], "name": "p_re_lu_12/alpha"}, {"dtype": "float32", "shape": [1, 1, 256], "name": "p_re_lu_120/alpha"}, {"dtype": "float32", "shape": [1, 1, 128], "name": "p_re_lu_121/alpha"}, {"dtype": "float32", "shape": [1, 1, 256], "name": "p_re_lu_122/alpha"}, {"dtype": "float32", "shape": [1, 1, 128], "name": "p_re_lu_123/alpha"}, {"dtype": "float32", "shape": [1, 1, 256], "name": "p_re_lu_124/alpha"}, {"dtype": "float32", "shape": [1, 1, 8], "name": "p_re_lu_13/alpha"}, {"dtype": "float32", "shape": [1, 1, 16], "name": "p_re_lu_14/alpha"}, {"dtype": "float32", "shape": [1, 1, 8], "name": "p_re_lu_15/alpha"}, {"dtype": "float32", "shape": [1, 1, 16], "name": "p_re_lu_16/alpha"}, {"dtype": "float32", "shape": [1, 1, 16], "name": "p_re_lu_17/alpha"}, {"dtype": "float32", "shape": [1, 1, 32], "name": "p_re_lu_18/alpha"}, {"dtype": "float32", "shape": [1, 1, 16], "name": "p_re_lu_19/alpha"}, {"dtype": "float32", "shape": [1, 1, 16], "name": "p_re_lu_2/alpha"}, {"dtype": "float32", "shape": [1, 1, 32], "name": "p_re_lu_20/alpha"}, {"dtype": "float32", "shape": [1, 1, 16], "name": "p_re_lu_21/alpha"}, {"dtype": "float32", "shape": [1, 1, 32], "name": "p_re_lu_22/alpha"}, {"dtype": "float32", "shape": [1, 1, 16], "name": "p_re_lu_23/alpha"}, {"dtype": "float32", "shape": [1, 1, 32], "name": "p_re_lu_24/alpha"}, {"dtype": "float32", "shape": [1, 1, 16], "name": "p_re_lu_25/alpha"}, {"dtype": "float32", "shape": [1, 1, 32], "name": "p_re_lu_26/alpha"}, {"dtype": "float32", "shape": [1, 1, 16], "name": "p_re_lu_27/alpha"}, {"dtype": "float32", "shape": [1, 1, 32], "name": "p_re_lu_28/alpha"}, {"dtype": "float32", "shape": [1, 1, 16], "name": "p_re_lu_29/alpha"}, {"dtype": "float32", "shape": [1, 1, 8], "name": "p_re_lu_3/alpha"}, {"dtype": "float32", "shape": [1, 1, 32], "name": "p_re_lu_30/alpha"}, {"dtype": "float32", "shape": [1, 1, 16], "name": "p_re_lu_31/alpha"}, {"dtype": "float32", "shape": [1, 1, 32], "name": "p_re_lu_32/alpha"}, {"dtype": "float32", "shape": [1, 1, 16], "name": "p_re_lu_33/alpha"}, {"dtype": "float32", "shape": [1, 1, 32], "name": "p_re_lu_34/alpha"}, {"dtype": "float32", "shape": [1, 1, 32], "name": "p_re_lu_35/alpha"}, {"dtype": "float32", "shape": [1, 1, 64], "name": "p_re_lu_36/alpha"}, {"dtype": "float32", "shape": [1, 1, 32], "name": "p_re_lu_37/alpha"}, {"dtype": "float32", "shape": [1, 1, 64], "name": "p_re_lu_38/alpha"}, {"dtype": "float32", "shape": [1, 1, 32], "name": "p_re_lu_39/alpha"}, {"dtype": "float32", "shape": [1, 1, 16], "name": "p_re_lu_4/alpha"}, {"dtype": "float32", "shape": [1, 1, 64], "name": "p_re_lu_40/alpha"}, {"dtype": "float32", "shape": [1, 1, 32], "name": "p_re_lu_41/alpha"}, {"dtype": "float32", "shape": [1, 1, 64], "name": "p_re_lu_42/alpha"}, {"dtype": "float32", "shape": [1, 1, 32], "name": "p_re_lu_43/alpha"}, {"dtype": "float32", "shape": [1, 1, 64], "name": "p_re_lu_44/alpha"}, {"dtype": "float32", "shape": [1, 1, 32], "name": "p_re_lu_45/alpha"}, {"dtype": "float32", "shape": [1, 1, 64], "name": "p_re_lu_46/alpha"}, {"dtype": "float32", "shape": [1, 1, 32], "name": "p_re_lu_47/alpha"}, {"dtype": "float32", "shape": [1, 1, 64], "name": "p_re_lu_48/alpha"}, {"dtype": "float32", "shape": [1, 1, 32], "name": "p_re_lu_49/alpha"}, {"dtype": "float32", "shape": [1, 1, 8], "name": "p_re_lu_5/alpha"}, {"dtype": "float32", "shape": [1, 1, 64], "name": "p_re_lu_50/alpha"}, {"dtype": "float32", "shape": [1, 1, 32], "name": "p_re_lu_51/alpha"}, {"dtype": "float32", "shape": [1, 1, 64], "name": "p_re_lu_52/alpha"}, {"dtype": "float32", "shape": [1, 1, 128], "name": "p_re_lu_53/alpha"}, {"dtype": "float32", "shape": [1, 1, 256], "name": "p_re_lu_54/alpha"}, {"dtype": "float32", "shape": [1, 1, 128], "name": "p_re_lu_55/alpha"}, {"dtype": "float32", "shape": [1, 1, 256], "name": "p_re_lu_56/alpha"}, {"dtype": "float32", "shape": [1, 1, 128], "name": "p_re_lu_57/alpha"}, {"dtype": "float32", "shape": [1, 1, 256], "name": "p_re_lu_58/alpha"}, {"dtype": "float32", "shape": [1, 1, 128], "name": "p_re_lu_59/alpha"}, {"dtype": "float32", "shape": [1, 1, 16], "name": "p_re_lu_6/alpha"}, {"dtype": "float32", "shape": [1, 1, 256], "name": "p_re_lu_60/alpha"}, {"dtype": "float32", "shape": [1, 1, 128], "name": "p_re_lu_61/alpha"}, {"dtype": "float32", "shape": [1, 1, 256], "name": "p_re_lu_62/alpha"}, {"dtype": "float32", "shape": [1, 1, 128], "name": "p_re_lu_63/alpha"}, {"dtype": "float32", "shape": [1, 1, 256], "name": "p_re_lu_64/alpha"}, {"dtype": "float32", "shape": [1, 1, 128], "name": "p_re_lu_65/alpha"}, {"dtype": "float32", "shape": [1, 1, 256], "name": "p_re_lu_66/alpha"}, {"dtype": "float32", "shape": [1, 1, 128], "name": "p_re_lu_67/alpha"}, {"dtype": "float32", "shape": [1, 1, 256], "name": "p_re_lu_68/alpha"}, {"dtype": "float32", "shape": [1, 1, 128], "name": "p_re_lu_69/alpha"}, {"dtype": "float32", "shape": [1, 1, 8], "name": "p_re_lu_7/alpha"}, {"dtype": "float32", "shape": [1, 1, 256], "name": "p_re_lu_70/alpha"}, {"dtype": "float32", "shape": [1, 1, 128], "name": "p_re_lu_71/alpha"}, {"dtype": "float32", "shape": [1, 1, 256], "name": "p_re_lu_72/alpha"}, {"dtype": "float32", "shape": [1, 1, 128], "name": "p_re_lu_73/alpha"}, {"dtype": "float32", "shape": [1, 1, 256], "name": "p_re_lu_74/alpha"}, {"dtype": "float32", "shape": [1, 1, 128], "name": "p_re_lu_75/alpha"}, {"dtype": "float32", "shape": [1, 1, 256], "name": "p_re_lu_76/alpha"}, {"dtype": "float32", "shape": [1, 1, 128], "name": "p_re_lu_77/alpha"}, {"dtype": "float32", "shape": [1, 1, 256], "name": "p_re_lu_78/alpha"}, {"dtype": "float32", "shape": [1, 1, 128], "name": "p_re_lu_79/alpha"}, {"dtype": "float32", "shape": [1, 1, 16], "name": "p_re_lu_8/alpha"}, {"dtype": "float32", "shape": [1, 1, 256], "name": "p_re_lu_80/alpha"}, {"dtype": "float32", "shape": [1, 1, 128], "name": "p_re_lu_81/alpha"}, {"dtype": "float32", "shape": [1, 1, 256], "name": "p_re_lu_82/alpha"}, {"dtype": "float32", "shape": [1, 1, 128], "name": "p_re_lu_83/alpha"}, {"dtype": "float32", "shape": [1, 1, 256], "name": "p_re_lu_84/alpha"}, {"dtype": "float32", "shape": [1, 1, 128], "name": "p_re_lu_85/alpha"}, {"dtype": "float32", "shape": [1, 1, 256], "name": "p_re_lu_86/alpha"}, {"dtype": "float32", "shape": [1, 1, 128], "name": "p_re_lu_87/alpha"}, {"dtype": "float32", "shape": [1, 1, 256], "name": "p_re_lu_88/alpha"}, {"dtype": "float32", "shape": [1, 1, 128], "name": "p_re_lu_89/alpha"}, {"dtype": "float32", "shape": [1, 1, 8], "name": "p_re_lu_9/alpha"}, {"dtype": "float32", "shape": [1, 1, 256], "name": "p_re_lu_90/alpha"}, {"dtype": "float32", "shape": [1, 1, 128], "name": "p_re_lu_91/alpha"}, {"dtype": "float32", "shape": [1, 1, 256], "name": "p_re_lu_92/alpha"}, {"dtype": "float32", "shape": [1, 1, 128], "name": "p_re_lu_93/alpha"}, {"dtype": "float32", "shape": [1, 1, 256], "name": "p_re_lu_94/alpha"}, {"dtype": "float32", "shape": [1, 1, 128], "name": "p_re_lu_95/alpha"}, {"dtype": "float32", "shape": [1, 1, 256], "name": "p_re_lu_96/alpha"}, {"dtype": "float32", "shape": [1, 1, 128], "name": "p_re_lu_97/alpha"}, {"dtype": "float32", "shape": [1, 1, 256], "name": "p_re_lu_98/alpha"}, {"dtype": "float32", "shape": [1, 1, 128], "name": "p_re_lu_99/alpha"}]}], "modelTopology": {"keras_version": "2.2.4-tf", "model_config": {"class_name": "Model", "config": {"layers": [{"class_name": "InputLayer", "inbound_nodes": [], "config": {"dtype": "float32", "batch_input_shape": [null, 256, 256, 3], "name": "input_1", "sparse": false}, "name": "input_1"}, {"class_name": "Conv2D", "inbound_nodes": [[["input_1", 0, 0, {}]]], "config": {"kernel_initializer": {"class_name": "GlorotUniform", "config": {"dtype": "float32", "seed": null}}, "name": "conv2d", "kernel_constraint": null, "bias_regularizer": null, "bias_constraint": null, "dtype": "float32", "activation": "linear", "trainable": true, "data_format": "channels_last", "padding": "same", "strides": [2, 2], "dilation_rate": [1, 1], "kernel_regularizer": null, "filters": 16, "bias_initializer": {"class_name": "Zeros", "config": {"dtype": "float32"}}, "use_bias": true, "activity_regularizer": null, "kernel_size": [3, 3]}, "name": "conv2d"}, {"class_name": "PReLU", "inbound_nodes": [[["conv2d", 0, 0, {}]]], "config": {"name": "p_re_lu", "dtype": "float32", "alpha_constraint": null, "trainable": true, "alpha_regularizer": null, "alpha_initializer": {"class_name": "Zeros", "config": {"dtype": "float32"}}, "shared_axes": [1, 2]}, "name": "p_re_lu"}, {"class_name": "Conv2D", "inbound_nodes": [[["p_re_lu", 0, 0, {}]]], "config": {"kernel_initializer": {"class_name": "GlorotUniform", "config": {"dtype": "float32", "seed": null}}, "name": "conv2d_1", "kernel_constraint": null, "bias_regularizer": null, "bias_constraint": null, "dtype": "float32", "activation": "linear", "trainable": true, "data_format": "channels_last", "padding": "valid", "strides": [1, 1], "dilation_rate": [1, 1], "kernel_regularizer": null, "filters": 8, "bias_initializer": {"class_name": "Zeros", "config": {"dtype": "float32"}}, "use_bias": true, "activity_regularizer": null, "kernel_size": [1, 1]}, "name": "conv2d_1"}, {"class_name": "PReLU", "inbound_nodes": [[["conv2d_1", 0, 0, {}]]], "config": {"name": "p_re_lu_1", "dtype": "float32", "alpha_constraint": null, "trainable": true, "alpha_regularizer": null, "alpha_initializer": {"class_name": "Zeros", "config": {"dtype": "float32"}}, "shared_axes": [1, 2]}, "name": "p_re_lu_1"}, {"class_name": "DepthwiseConv2D", "inbound_nodes": [[["p_re_lu_1", 0, 0, {}]]], "config": {"depth_multiplier": 1, "name": "depthwise_conv2d", "bias_regularizer": null, "bias_constraint": null, "dtype": "float32", "activation": "linear", "trainable": true, "depthwise_constraint": null, "data_format": "channels_last", "padding": "same", "strides": [1, 1], "dilation_rate": [1, 1], "depthwise_initializer": {"class_name": "GlorotUniform", "config": {"dtype": "float32", "seed": null}}, "bias_initializer": {"class_name": "Zeros", "config": {"dtype": "float32"}}, "depthwise_regularizer": null, "use_bias": true, "activity_regularizer": null, "kernel_size": [3, 3]}, "name": "depthwise_conv2d"}, {"class_name": "Conv2D", "inbound_nodes": [[["depthwise_conv2d", 0, 0, {}]]], "config": {"kernel_initializer": {"class_name": "GlorotUniform", "config": {"dtype": "float32", "seed": null}}, "name": "conv2d_2", "kernel_constraint": null, "bias_regularizer": null, "bias_constraint": null, "dtype": "float32", "activation": "linear", "trainable": true, "data_format": "channels_last", "padding": "valid", "strides": [1, 1], "dilation_rate": [1, 1], "kernel_regularizer": null, "filters": 16, "bias_initializer": {"class_name": "Zeros", "config": {"dtype": "float32"}}, "use_bias": true, "activity_regularizer": null, "kernel_size": [1, 1]}, "name": "conv2d_2"}, {"class_name": "Add", "inbound_nodes": [[["p_re_lu", 0, 0, {}], ["conv2d_2", 0, 0, {}]]], "config": {"dtype": "float32", "trainable": true, "name": "add"}, "name": "add"}, {"class_name": "PReLU", "inbound_nodes": [[["add", 0, 0, {}]]], "config": {"name": "p_re_lu_2", "dtype": "float32", "alpha_constraint": null, "trainable": true, "alpha_regularizer": null, "alpha_initializer": {"class_name": "Zeros", "config": {"dtype": "float32"}}, "shared_axes": [1, 2]}, "name": "p_re_lu_2"}, {"class_name": "Conv2D", "inbound_nodes": [[["p_re_lu_2", 0, 0, {}]]], "config": {"kernel_initializer": {"class_name": "GlorotUniform", "config": {"dtype": "float32", "seed": null}}, "name": "conv2d_3", "kernel_constraint": null, "bias_regularizer": null, "bias_constraint": null, "dtype": "float32", "activation": "linear", "trainable": true, "data_format": "channels_last", "padding": "valid", "strides": [1, 1], "dilation_rate": [1, 1], "kernel_regularizer": null, "filters": 8, "bias_initializer": {"class_name": "Zeros", "config": {"dtype": "float32"}}, "use_bias": true, "activity_regularizer": null, "kernel_size": [1, 1]}, "name": "conv2d_3"}, {"class_name": "PReLU", "inbound_nodes": [[["conv2d_3", 0, 0, {}]]], "config": {"name": "p_re_lu_3", "dtype": "float32", "alpha_constraint": null, "trainable": true, "alpha_regularizer": null, "alpha_initializer": {"class_name": "Zeros", "config": {"dtype": "float32"}}, "shared_axes": [1, 2]}, "name": "p_re_lu_3"}, {"class_name": "DepthwiseConv2D", "inbound_nodes": [[["p_re_lu_3", 0, 0, {}]]], "config": {"depth_multiplier": 1, "name": "depthwise_conv2d_1", "bias_regularizer": null, "bias_constraint": null, "dtype": "float32", "activation": "linear", "trainable": true, "depthwise_constraint": null, "data_format": "channels_last", "padding": "same", "strides": [1, 1], "dilation_rate": [1, 1], "depthwise_initializer": {"class_name": "GlorotUniform", "config": {"dtype": "float32", "seed": null}}, "bias_initializer": {"class_name": "Zeros", "config": {"dtype": "float32"}}, "depthwise_regularizer": null, "use_bias": true, "activity_regularizer": null, "kernel_size": [3, 3]}, "name": "depthwise_conv2d_1"}, {"class_name": "Conv2D", "inbound_nodes": [[["depthwise_conv2d_1", 0, 0, {}]]], "config": {"kernel_initializer": {"class_name": "GlorotUniform", "config": {"dtype": "float32", "seed": null}}, "name": "conv2d_4", "kernel_constraint": null, "bias_regularizer": null, "bias_constraint": null, "dtype": "float32", "activation": "linear", "trainable": true, "data_format": "channels_last", "padding": "valid", "strides": [1, 1], "dilation_rate": [1, 1], "kernel_regularizer": null, "filters": 16, "bias_initializer": {"class_name": "Zeros", "config": {"dtype": "float32"}}, "use_bias": true, "activity_regularizer": null, "kernel_size": [1, 1]}, "name": "conv2d_4"}, {"class_name": "Add", "inbound_nodes": [[["p_re_lu_2", 0, 0, {}], ["conv2d_4", 0, 0, {}]]], "config": {"dtype": "float32", "trainable": true, "name": "add_1"}, "name": "add_1"}, {"class_name": "PReLU", "inbound_nodes": [[["add_1", 0, 0, {}]]], "config": {"name": "p_re_lu_4", "dtype": "float32", "alpha_constraint": null, "trainable": true, "alpha_regularizer": null, "alpha_initializer": {"class_name": "Zeros", "config": {"dtype": "float32"}}, "shared_axes": [1, 2]}, "name": "p_re_lu_4"}, {"class_name": "Conv2D", "inbound_nodes": [[["p_re_lu_4", 0, 0, {}]]], "config": {"kernel_initializer": {"class_name": "GlorotUniform", "config": {"dtype": "float32", "seed": null}}, "name": "conv2d_5", "kernel_constraint": null, "bias_regularizer": null, "bias_constraint": null, "dtype": "float32", "activation": "linear", "trainable": true, "data_format": "channels_last", "padding": "valid", "strides": [1, 1], "dilation_rate": [1, 1], "kernel_regularizer": null, "filters": 8, "bias_initializer": {"class_name": "Zeros", "config": {"dtype": "float32"}}, "use_bias": true, "activity_regularizer": null, "kernel_size": [1, 1]}, "name": "conv2d_5"}, {"class_name": "PReLU", "inbound_nodes": [[["conv2d_5", 0, 0, {}]]], "config": {"name": "p_re_lu_5", "dtype": "float32", "alpha_constraint": null, "trainable": true, "alpha_regularizer": null, "alpha_initializer": {"class_name": "Zeros", "config": {"dtype": "float32"}}, "shared_axes": [1, 2]}, "name": "p_re_lu_5"}, {"class_name": "DepthwiseConv2D", "inbound_nodes": [[["p_re_lu_5", 0, 0, {}]]], "config": {"depth_multiplier": 1, "name": "depthwise_conv2d_2", "bias_regularizer": null, "bias_constraint": null, "dtype": "float32", "activation": "linear", "trainable": true, "depthwise_constraint": null, "data_format": "channels_last", "padding": "same", "strides": [1, 1], "dilation_rate": [1, 1], "depthwise_initializer": {"class_name": "GlorotUniform", "config": {"dtype": "float32", "seed": null}}, "bias_initializer": {"class_name": "Zeros", "config": {"dtype": "float32"}}, "depthwise_regularizer": null, "use_bias": true, "activity_regularizer": null, "kernel_size": [3, 3]}, "name": "depthwise_conv2d_2"}, {"class_name": "Conv2D", "inbound_nodes": [[["depthwise_conv2d_2", 0, 0, {}]]], "config": {"kernel_initializer": {"class_name": "GlorotUniform", "config": {"dtype": "float32", "seed": null}}, "name": "conv2d_6", "kernel_constraint": null, "bias_regularizer": null, "bias_constraint": null, "dtype": "float32", "activation": "linear", "trainable": true, "data_format": "channels_last", "padding": "valid", "strides": [1, 1], "dilation_rate": [1, 1], "kernel_regularizer": null, "filters": 16, "bias_initializer": {"class_name": "Zeros", "config": {"dtype": "float32"}}, "use_bias": true, "activity_regularizer": null, "kernel_size": [1, 1]}, "name": "conv2d_6"}, {"class_name": "Add", "inbound_nodes": [[["p_re_lu_4", 0, 0, {}], ["conv2d_6", 0, 0, {}]]], "config": {"dtype": "float32", "trainable": true, "name": "add_2"}, "name": "add_2"}, {"class_name": "PReLU", "inbound_nodes": [[["add_2", 0, 0, {}]]], "config": {"name": "p_re_lu_6", "dtype": "float32", "alpha_constraint": null, "trainable": true, "alpha_regularizer": null, "alpha_initializer": {"class_name": "Zeros", "config": {"dtype": "float32"}}, "shared_axes": [1, 2]}, "name": "p_re_lu_6"}, {"class_name": "Conv2D", "inbound_nodes": [[["p_re_lu_6", 0, 0, {}]]], "config": {"kernel_initializer": {"class_name": "GlorotUniform", "config": {"dtype": "float32", "seed": null}}, "name": "conv2d_7", "kernel_constraint": null, "bias_regularizer": null, "bias_constraint": null, "dtype": "float32", "activation": "linear", "trainable": true, "data_format": "channels_last", "padding": "valid", "strides": [1, 1], "dilation_rate": [1, 1], "kernel_regularizer": null, "filters": 8, "bias_initializer": {"class_name": "Zeros", "config": {"dtype": "float32"}}, "use_bias": true, "activity_regularizer": null, "kernel_size": [1, 1]}, "name": "conv2d_7"}, {"class_name": "PReLU", "inbound_nodes": [[["conv2d_7", 0, 0, {}]]], "config": {"name": "p_re_lu_7", "dtype": "float32", "alpha_constraint": null, "trainable": true, "alpha_regularizer": null, "alpha_initializer": {"class_name": "Zeros", "config": {"dtype": "float32"}}, "shared_axes": [1, 2]}, "name": "p_re_lu_7"}, {"class_name": "DepthwiseConv2D", "inbound_nodes": [[["p_re_lu_7", 0, 0, {}]]], "config": {"depth_multiplier": 1, "name": "depthwise_conv2d_3", "bias_regularizer": null, "bias_constraint": null, "dtype": "float32", "activation": "linear", "trainable": true, "depthwise_constraint": null, "data_format": "channels_last", "padding": "same", "strides": [1, 1], "dilation_rate": [1, 1], "depthwise_initializer": {"class_name": "GlorotUniform", "config": {"dtype": "float32", "seed": null}}, "bias_initializer": {"class_name": "Zeros", "config": {"dtype": "float32"}}, "depthwise_regularizer": null, "use_bias": true, "activity_regularizer": null, "kernel_size": [3, 3]}, "name": "depthwise_conv2d_3"}, {"class_name": "Conv2D", "inbound_nodes": [[["depthwise_conv2d_3", 0, 0, {}]]], "config": {"kernel_initializer": {"class_name": "GlorotUniform", "config": {"dtype": "float32", "seed": null}}, "name": "conv2d_8", "kernel_constraint": null, "bias_regularizer": null, "bias_constraint": null, "dtype": "float32", "activation": "linear", "trainable": true, "data_format": "channels_last", "padding": "valid", "strides": [1, 1], "dilation_rate": [1, 1], "kernel_regularizer": null, "filters": 16, "bias_initializer": {"class_name": "Zeros", "config": {"dtype": "float32"}}, "use_bias": true, "activity_regularizer": null, "kernel_size": [1, 1]}, "name": "conv2d_8"}, {"class_name": "Add", "inbound_nodes": [[["p_re_lu_6", 0, 0, {}], ["conv2d_8", 0, 0, {}]]], "config": {"dtype": "float32", "trainable": true, "name": "add_3"}, "name": "add_3"}, {"class_name": "PReLU", "inbound_nodes": [[["add_3", 0, 0, {}]]], "config": {"name": "p_re_lu_8", "dtype": "float32", "alpha_constraint": null, "trainable": true, "alpha_regularizer": null, "alpha_initializer": {"class_name": "Zeros", "config": {"dtype": "float32"}}, "shared_axes": [1, 2]}, "name": "p_re_lu_8"}, {"class_name": "Conv2D", "inbound_nodes": [[["p_re_lu_8", 0, 0, {}]]], "config": {"kernel_initializer": {"class_name": "GlorotUniform", "config": {"dtype": "float32", "seed": null}}, "name": "conv2d_9", "kernel_constraint": null, "bias_regularizer": null, "bias_constraint": null, "dtype": "float32", "activation": "linear", "trainable": true, "data_format": "channels_last", "padding": "valid", "strides": [1, 1], "dilation_rate": [1, 1], "kernel_regularizer": null, "filters": 8, "bias_initializer": {"class_name": "Zeros", "config": {"dtype": "float32"}}, "use_bias": true, "activity_regularizer": null, "kernel_size": [1, 1]}, "name": "conv2d_9"}, {"class_name": "PReLU", "inbound_nodes": [[["conv2d_9", 0, 0, {}]]], "config": {"name": "p_re_lu_9", "dtype": "float32", "alpha_constraint": null, "trainable": true, "alpha_regularizer": null, "alpha_initializer": {"class_name": "Zeros", "config": {"dtype": "float32"}}, "shared_axes": [1, 2]}, "name": "p_re_lu_9"}, {"class_name": "DepthwiseConv2D", "inbound_nodes": [[["p_re_lu_9", 0, 0, {}]]], "config": {"depth_multiplier": 1, "name": "depthwise_conv2d_4", "bias_regularizer": null, "bias_constraint": null, "dtype": "float32", "activation": "linear", "trainable": true, "depthwise_constraint": null, "data_format": "channels_last", "padding": "same", "strides": [1, 1], "dilation_rate": [1, 1], "depthwise_initializer": {"class_name": "GlorotUniform", "config": {"dtype": "float32", "seed": null}}, "bias_initializer": {"class_name": "Zeros", "config": {"dtype": "float32"}}, "depthwise_regularizer": null, "use_bias": true, "activity_regularizer": null, "kernel_size": [3, 3]}, "name": "depthwise_conv2d_4"}, {"class_name": "Conv2D", "inbound_nodes": [[["depthwise_conv2d_4", 0, 0, {}]]], "config": {"kernel_initializer": {"class_name": "GlorotUniform", "config": {"dtype": "float32", "seed": null}}, "name": "conv2d_10", "kernel_constraint": null, "bias_regularizer": null, "bias_constraint": null, "dtype": "float32", "activation": "linear", "trainable": true, "data_format": "channels_last", "padding": "valid", "strides": [1, 1], "dilation_rate": [1, 1], "kernel_regularizer": null, "filters": 16, "bias_initializer": {"class_name": "Zeros", "config": {"dtype": "float32"}}, "use_bias": true, "activity_regularizer": null, "kernel_size": [1, 1]}, "name": "conv2d_10"}, {"class_name": "Add", "inbound_nodes": [[["p_re_lu_8", 0, 0, {}], ["conv2d_10", 0, 0, {}]]], "config": {"dtype": "float32", "trainable": true, "name": "add_4"}, "name": "add_4"}, {"class_name": "PReLU", "inbound_nodes": [[["add_4", 0, 0, {}]]], "config": {"name": "p_re_lu_10", "dtype": "float32", "alpha_constraint": null, "trainable": true, "alpha_regularizer": null, "alpha_initializer": {"class_name": "Zeros", "config": {"dtype": "float32"}}, "shared_axes": [1, 2]}, "name": "p_re_lu_10"}, {"class_name": "Conv2D", "inbound_nodes": [[["p_re_lu_10", 0, 0, {}]]], "config": {"kernel_initializer": {"class_name": "GlorotUniform", "config": {"dtype": "float32", "seed": null}}, "name": "conv2d_11", "kernel_constraint": null, "bias_regularizer": null, "bias_constraint": null, "dtype": "float32", "activation": "linear", "trainable": true, "data_format": "channels_last", "padding": "valid", "strides": [1, 1], "dilation_rate": [1, 1], "kernel_regularizer": null, "filters": 8, "bias_initializer": {"class_name": "Zeros", "config": {"dtype": "float32"}}, "use_bias": true, "activity_regularizer": null, "kernel_size": [1, 1]}, "name": "conv2d_11"}, {"class_name": "PReLU", "inbound_nodes": [[["conv2d_11", 0, 0, {}]]], "config": {"name": "p_re_lu_11", "dtype": "float32", "alpha_constraint": null, "trainable": true, "alpha_regularizer": null, "alpha_initializer": {"class_name": "Zeros", "config": {"dtype": "float32"}}, "shared_axes": [1, 2]}, "name": "p_re_lu_11"}, {"class_name": "DepthwiseConv2D", "inbound_nodes": [[["p_re_lu_11", 0, 0, {}]]], "config": {"depth_multiplier": 1, "name": "depthwise_conv2d_5", "bias_regularizer": null, "bias_constraint": null, "dtype": "float32", "activation": "linear", "trainable": true, "depthwise_constraint": null, "data_format": "channels_last", "padding": "same", "strides": [1, 1], "dilation_rate": [1, 1], "depthwise_initializer": {"class_name": "GlorotUniform", "config": {"dtype": "float32", "seed": null}}, "bias_initializer": {"class_name": "Zeros", "config": {"dtype": "float32"}}, "depthwise_regularizer": null, "use_bias": true, "activity_regularizer": null, "kernel_size": [3, 3]}, "name": "depthwise_conv2d_5"}, {"class_name": "Conv2D", "inbound_nodes": [[["depthwise_conv2d_5", 0, 0, {}]]], "config": {"kernel_initializer": {"class_name": "GlorotUniform", "config": {"dtype": "float32", "seed": null}}, "name": "conv2d_12", "kernel_constraint": null, "bias_regularizer": null, "bias_constraint": null, "dtype": "float32", "activation": "linear", "trainable": true, "data_format": "channels_last", "padding": "valid", "strides": [1, 1], "dilation_rate": [1, 1], "kernel_regularizer": null, "filters": 16, "bias_initializer": {"class_name": "Zeros", "config": {"dtype": "float32"}}, "use_bias": true, "activity_regularizer": null, "kernel_size": [1, 1]}, "name": "conv2d_12"}, {"class_name": "Add", "inbound_nodes": [[["p_re_lu_10", 0, 0, {}], ["conv2d_12", 0, 0, {}]]], "config": {"dtype": "float32", "trainable": true, "name": "add_5"}, "name": "add_5"}, {"class_name": "PReLU", "inbound_nodes": [[["add_5", 0, 0, {}]]], "config": {"name": "p_re_lu_12", "dtype": "float32", "alpha_constraint": null, "trainable": true, "alpha_regularizer": null, "alpha_initializer": {"class_name": "Zeros", "config": {"dtype": "float32"}}, "shared_axes": [1, 2]}, "name": "p_re_lu_12"}, {"class_name": "Conv2D", "inbound_nodes": [[["p_re_lu_12", 0, 0, {}]]], "config": {"kernel_initializer": {"class_name": "GlorotUniform", "config": {"dtype": "float32", "seed": null}}, "name": "conv2d_13", "kernel_constraint": null, "bias_regularizer": null, "bias_constraint": null, "dtype": "float32", "activation": "linear", "trainable": true, "data_format": "channels_last", "padding": "valid", "strides": [1, 1], "dilation_rate": [1, 1], "kernel_regularizer": null, "filters": 8, "bias_initializer": {"class_name": "Zeros", "config": {"dtype": "float32"}}, "use_bias": true, "activity_regularizer": null, "kernel_size": [1, 1]}, "name": "conv2d_13"}, {"class_name": "PReLU", "inbound_nodes": [[["conv2d_13", 0, 0, {}]]], "config": {"name": "p_re_lu_13", "dtype": "float32", "alpha_constraint": null, "trainable": true, "alpha_regularizer": null, "alpha_initializer": {"class_name": "Zeros", "config": {"dtype": "float32"}}, "shared_axes": [1, 2]}, "name": "p_re_lu_13"}, {"class_name": "DepthwiseConv2D", "inbound_nodes": [[["p_re_lu_13", 0, 0, {}]]], "config": {"depth_multiplier": 1, "name": "depthwise_conv2d_6", "bias_regularizer": null, "bias_constraint": null, "dtype": "float32", "activation": "linear", "trainable": true, "depthwise_constraint": null, "data_format": "channels_last", "padding": "same", "strides": [1, 1], "dilation_rate": [1, 1], "depthwise_initializer": {"class_name": "GlorotUniform", "config": {"dtype": "float32", "seed": null}}, "bias_initializer": {"class_name": "Zeros", "config": {"dtype": "float32"}}, "depthwise_regularizer": null, "use_bias": true, "activity_regularizer": null, "kernel_size": [3, 3]}, "name": "depthwise_conv2d_6"}, {"class_name": "Conv2D", "inbound_nodes": [[["depthwise_conv2d_6", 0, 0, {}]]], "config": {"kernel_initializer": {"class_name": "GlorotUniform", "config": {"dtype": "float32", "seed": null}}, "name": "conv2d_14", "kernel_constraint": null, "bias_regularizer": null, "bias_constraint": null, "dtype": "float32", "activation": "linear", "trainable": true, "data_format": "channels_last", "padding": "valid", "strides": [1, 1], "dilation_rate": [1, 1], "kernel_regularizer": null, "filters": 16, "bias_initializer": {"class_name": "Zeros", "config": {"dtype": "float32"}}, "use_bias": true, "activity_regularizer": null, "kernel_size": [1, 1]}, "name": "conv2d_14"}, {"class_name": "Add", "inbound_nodes": [[["p_re_lu_12", 0, 0, {}], ["conv2d_14", 0, 0, {}]]], "config": {"dtype": "float32", "trainable": true, "name": "add_6"}, "name": "add_6"}, {"class_name": "PReLU", "inbound_nodes": [[["add_6", 0, 0, {}]]], "config": {"name": "p_re_lu_14", "dtype": "float32", "alpha_constraint": null, "trainable": true, "alpha_regularizer": null, "alpha_initializer": {"class_name": "Zeros", "config": {"dtype": "float32"}}, "shared_axes": [1, 2]}, "name": "p_re_lu_14"}, {"class_name": "Conv2D", "inbound_nodes": [[["p_re_lu_14", 0, 0, {}]]], "config": {"kernel_initializer": {"class_name": "GlorotUniform", "config": {"dtype": "float32", "seed": null}}, "name": "conv2d_15", "kernel_constraint": null, "bias_regularizer": null, "bias_constraint": null, "dtype": "float32", "activation": "linear", "trainable": true, "data_format": "channels_last", "padding": "valid", "strides": [1, 1], "dilation_rate": [1, 1], "kernel_regularizer": null, "filters": 8, "bias_initializer": {"class_name": "Zeros", "config": {"dtype": "float32"}}, "use_bias": true, "activity_regularizer": null, "kernel_size": [1, 1]}, "name": "conv2d_15"}, {"class_name": "PReLU", "inbound_nodes": [[["conv2d_15", 0, 0, {}]]], "config": {"name": "p_re_lu_15", "dtype": "float32", "alpha_constraint": null, "trainable": true, "alpha_regularizer": null, "alpha_initializer": {"class_name": "Zeros", "config": {"dtype": "float32"}}, "shared_axes": [1, 2]}, "name": "p_re_lu_15"}, {"class_name": "DepthwiseConv2D", "inbound_nodes": [[["p_re_lu_15", 0, 0, {}]]], "config": {"depth_multiplier": 1, "name": "depthwise_conv2d_7", "bias_regularizer": null, "bias_constraint": null, "dtype": "float32", "activation": "linear", "trainable": true, "depthwise_constraint": null, "data_format": "channels_last", "padding": "same", "strides": [1, 1], "dilation_rate": [1, 1], "depthwise_initializer": {"class_name": "GlorotUniform", "config": {"dtype": "float32", "seed": null}}, "bias_initializer": {"class_name": "Zeros", "config": {"dtype": "float32"}}, "depthwise_regularizer": null, "use_bias": true, "activity_regularizer": null, "kernel_size": [3, 3]}, "name": "depthwise_conv2d_7"}, {"class_name": "Conv2D", "inbound_nodes": [[["depthwise_conv2d_7", 0, 0, {}]]], "config": {"kernel_initializer": {"class_name": "GlorotUniform", "config": {"dtype": "float32", "seed": null}}, "name": "conv2d_16", "kernel_constraint": null, "bias_regularizer": null, "bias_constraint": null, "dtype": "float32", "activation": "linear", "trainable": true, "data_format": "channels_last", "padding": "valid", "strides": [1, 1], "dilation_rate": [1, 1], "kernel_regularizer": null, "filters": 16, "bias_initializer": {"class_name": "Zeros", "config": {"dtype": "float32"}}, "use_bias": true, "activity_regularizer": null, "kernel_size": [1, 1]}, "name": "conv2d_16"}, {"class_name": "Add", "inbound_nodes": [[["p_re_lu_14", 0, 0, {}], ["conv2d_16", 0, 0, {}]]], "config": {"dtype": "float32", "trainable": true, "name": "add_7"}, "name": "add_7"}, {"class_name": "PReLU", "inbound_nodes": [[["add_7", 0, 0, {}]]], "config": {"name": "p_re_lu_16", "dtype": "float32", "alpha_constraint": null, "trainable": true, "alpha_regularizer": null, "alpha_initializer": {"class_name": "Zeros", "config": {"dtype": "float32"}}, "shared_axes": [1, 2]}, "name": "p_re_lu_16"}, {"class_name": "Conv2D", "inbound_nodes": [[["p_re_lu_16", 0, 0, {}]]], "config": {"kernel_initializer": {"class_name": "GlorotUniform", "config": {"dtype": "float32", "seed": null}}, "name": "conv2d_17", "kernel_constraint": null, "bias_regularizer": null, "bias_constraint": null, "dtype": "float32", "activation": "linear", "trainable": true, "data_format": "channels_last", "padding": "valid", "strides": [2, 2], "dilation_rate": [1, 1], "kernel_regularizer": null, "filters": 16, "bias_initializer": {"class_name": "Zeros", "config": {"dtype": "float32"}}, "use_bias": true, "activity_regularizer": null, "kernel_size": [2, 2]}, "name": "conv2d_17"}, {"class_name": "MaxPooling2D", "inbound_nodes": [[["p_re_lu_16", 0, 0, {}]]], "config": {"name": "max_pooling2d", "dtype": "float32", "trainable": true, "data_format": "channels_last", "pool_size": [2, 2], "padding": "valid", "strides": [2, 2]}, "name": "max_pooling2d"}, {"class_name": "PReLU", "inbound_nodes": [[["conv2d_17", 0, 0, {}]]], "config": {"name": "p_re_lu_17", "dtype": "float32", "alpha_constraint": null, "trainable": true, "alpha_regularizer": null, "alpha_initializer": {"class_name": "Zeros", "config": {"dtype": "float32"}}, "shared_axes": [1, 2]}, "name": "p_re_lu_17"}, {"class_name": "Lambda", "inbound_nodes": [[["max_pooling2d", 0, 0, {}]]], "config": {"function": ["YwEAAAAHAAAABQAAABNgAQBzYgAAAGQBAGQAAGwAAH0BAHwBAGoBAHwAAIMBAGQBABl9AgB8AABq\nAQBqAgCDAABcBAB9AwB9BAB9BQB9AwB8AQBqAwB8AgB8BAB8BQCIAABnBABkAgB8AABqBACDAQF9\nBgB8BgBTKAMAAABOaQAAAAB0BQAAAGR0eXBlKAUAAAB0CgAAAHRlbnNvcmZsb3d0BQAAAHNoYXBl\ndAcAAABhc19saXN0dAUAAAB6ZXJvc1IAAAAAKAcAAAB0AQAAAHh0AgAAAHRmdAoAAABiYXRjaF9z\naXpldAEAAABfdAEAAAB3dAEAAABodAMAAABwYWQoAQAAAHQFAAAAYWZ0ZXIoAAAAAHMKAAAAY29u\ndmVydC5weXQIAAAAX2dlbl9wYWRKAAAAcwoAAAAAAQwBEwEbASQB\n", null, [16]], "name": "lambda", "output_shape_module": null, "dtype": "float32", "trainable": true, "module": "__main__", "function_type": "lambda", "output_shape_type": "raw", "output_shape": null, "arguments": {}}, "name": "lambda"}, {"class_name": "DepthwiseConv2D", "inbound_nodes": [[["p_re_lu_17", 0, 0, {}]]], "config": {"depth_multiplier": 1, "name": "depthwise_conv2d_8", "bias_regularizer": null, "bias_constraint": null, "dtype": "float32", "activation": "linear", "trainable": true, "depthwise_constraint": null, "data_format": "channels_last", "padding": "same", "strides": [1, 1], "dilation_rate": [1, 1], "depthwise_initializer": {"class_name": "GlorotUniform", "config": {"dtype": "float32", "seed": null}}, "bias_initializer": {"class_name": "Zeros", "config": {"dtype": "float32"}}, "depthwise_regularizer": null, "use_bias": true, "activity_regularizer": null, "kernel_size": [3, 3]}, "name": "depthwise_conv2d_8"}, {"class_name": "Concatenate", "inbound_nodes": [[["max_pooling2d", 0, 0, {}], ["lambda", 0, 0, {}]]], "config": {"dtype": "float32", "trainable": true, "name": "concatenate", "axis": 3}, "name": "concatenate"}, {"class_name": "Conv2D", "inbound_nodes": [[["depthwise_conv2d_8", 0, 0, {}]]], "config": {"kernel_initializer": {"class_name": "GlorotUniform", "config": {"dtype": "float32", "seed": null}}, "name": "conv2d_18", "kernel_constraint": null, "bias_regularizer": null, "bias_constraint": null, "dtype": "float32", "activation": "linear", "trainable": true, "data_format": "channels_last", "padding": "valid", "strides": [1, 1], "dilation_rate": [1, 1], "kernel_regularizer": null, "filters": 32, "bias_initializer": {"class_name": "Zeros", "config": {"dtype": "float32"}}, "use_bias": true, "activity_regularizer": null, "kernel_size": [1, 1]}, "name": "conv2d_18"}, {"class_name": "Add", "inbound_nodes": [[["concatenate", 0, 0, {}], ["conv2d_18", 0, 0, {}]]], "config": {"dtype": "float32", "trainable": true, "name": "add_8"}, "name": "add_8"}, {"class_name": "PReLU", "inbound_nodes": [[["add_8", 0, 0, {}]]], "config": {"name": "p_re_lu_18", "dtype": "float32", "alpha_constraint": null, "trainable": true, "alpha_regularizer": null, "alpha_initializer": {"class_name": "Zeros", "config": {"dtype": "float32"}}, "shared_axes": [1, 2]}, "name": "p_re_lu_18"}, {"class_name": "Conv2D", "inbound_nodes": [[["p_re_lu_18", 0, 0, {}]]], "config": {"kernel_initializer": {"class_name": "GlorotUniform", "config": {"dtype": "float32", "seed": null}}, "name": "conv2d_19", "kernel_constraint": null, "bias_regularizer": null, "bias_constraint": null, "dtype": "float32", "activation": "linear", "trainable": true, "data_format": "channels_last", "padding": "valid", "strides": [1, 1], "dilation_rate": [1, 1], "kernel_regularizer": null, "filters": 16, "bias_initializer": {"class_name": "Zeros", "config": {"dtype": "float32"}}, "use_bias": true, "activity_regularizer": null, "kernel_size": [1, 1]}, "name": "conv2d_19"}, {"class_name": "PReLU", "inbound_nodes": [[["conv2d_19", 0, 0, {}]]], "config": {"name": "p_re_lu_19", "dtype": "float32", "alpha_constraint": null, "trainable": true, "alpha_regularizer": null, "alpha_initializer": {"class_name": "Zeros", "config": {"dtype": "float32"}}, "shared_axes": [1, 2]}, "name": "p_re_lu_19"}, {"class_name": "DepthwiseConv2D", "inbound_nodes": [[["p_re_lu_19", 0, 0, {}]]], "config": {"depth_multiplier": 1, "name": "depthwise_conv2d_9", "bias_regularizer": null, "bias_constraint": null, "dtype": "float32", "activation": "linear", "trainable": true, "depthwise_constraint": null, "data_format": "channels_last", "padding": "same", "strides": [1, 1], "dilation_rate": [1, 1], "depthwise_initializer": {"class_name": "GlorotUniform", "config": {"dtype": "float32", "seed": null}}, "bias_initializer": {"class_name": "Zeros", "config": {"dtype": "float32"}}, "depthwise_regularizer": null, "use_bias": true, "activity_regularizer": null, "kernel_size": [3, 3]}, "name": "depthwise_conv2d_9"}, {"class_name": "Conv2D", "inbound_nodes": [[["depthwise_conv2d_9", 0, 0, {}]]], "config": {"kernel_initializer": {"class_name": "GlorotUniform", "config": {"dtype": "float32", "seed": null}}, "name": "conv2d_20", "kernel_constraint": null, "bias_regularizer": null, "bias_constraint": null, "dtype": "float32", "activation": "linear", "trainable": true, "data_format": "channels_last", "padding": "valid", "strides": [1, 1], "dilation_rate": [1, 1], "kernel_regularizer": null, "filters": 32, "bias_initializer": {"class_name": "Zeros", "config": {"dtype": "float32"}}, "use_bias": true, "activity_regularizer": null, "kernel_size": [1, 1]}, "name": "conv2d_20"}, {"class_name": "Add", "inbound_nodes": [[["p_re_lu_18", 0, 0, {}], ["conv2d_20", 0, 0, {}]]], "config": {"dtype": "float32", "trainable": true, "name": "add_9"}, "name": "add_9"}, {"class_name": "PReLU", "inbound_nodes": [[["add_9", 0, 0, {}]]], "config": {"name": "p_re_lu_20", "dtype": "float32", "alpha_constraint": null, "trainable": true, "alpha_regularizer": null, "alpha_initializer": {"class_name": "Zeros", "config": {"dtype": "float32"}}, "shared_axes": [1, 2]}, "name": "p_re_lu_20"}, {"class_name": "Conv2D", "inbound_nodes": [[["p_re_lu_20", 0, 0, {}]]], "config": {"kernel_initializer": {"class_name": "GlorotUniform", "config": {"dtype": "float32", "seed": null}}, "name": "conv2d_21", "kernel_constraint": null, "bias_regularizer": null, "bias_constraint": null, "dtype": "float32", "activation": "linear", "trainable": true, "data_format": "channels_last", "padding": "valid", "strides": [1, 1], "dilation_rate": [1, 1], "kernel_regularizer": null, "filters": 16, "bias_initializer": {"class_name": "Zeros", "config": {"dtype": "float32"}}, "use_bias": true, "activity_regularizer": null, "kernel_size": [1, 1]}, "name": "conv2d_21"}, {"class_name": "PReLU", "inbound_nodes": [[["conv2d_21", 0, 0, {}]]], "config": {"name": "p_re_lu_21", "dtype": "float32", "alpha_constraint": null, "trainable": true, "alpha_regularizer": null, "alpha_initializer": {"class_name": "Zeros", "config": {"dtype": "float32"}}, "shared_axes": [1, 2]}, "name": "p_re_lu_21"}, {"class_name": "DepthwiseConv2D", "inbound_nodes": [[["p_re_lu_21", 0, 0, {}]]], "config": {"depth_multiplier": 1, "name": "depthwise_conv2d_10", "bias_regularizer": null, "bias_constraint": null, "dtype": "float32", "activation": "linear", "trainable": true, "depthwise_constraint": null, "data_format": "channels_last", "padding": "same", "strides": [1, 1], "dilation_rate": [1, 1], "depthwise_initializer": {"class_name": "GlorotUniform", "config": {"dtype": "float32", "seed": null}}, "bias_initializer": {"class_name": "Zeros", "config": {"dtype": "float32"}}, "depthwise_regularizer": null, "use_bias": true, "activity_regularizer": null, "kernel_size": [3, 3]}, "name": "depthwise_conv2d_10"}, {"class_name": "Conv2D", "inbound_nodes": [[["depthwise_conv2d_10", 0, 0, {}]]], "config": {"kernel_initializer": {"class_name": "GlorotUniform", "config": {"dtype": "float32", "seed": null}}, "name": "conv2d_22", "kernel_constraint": null, "bias_regularizer": null, "bias_constraint": null, "dtype": "float32", "activation": "linear", "trainable": true, "data_format": "channels_last", "padding": "valid", "strides": [1, 1], "dilation_rate": [1, 1], "kernel_regularizer": null, "filters": 32, "bias_initializer": {"class_name": "Zeros", "config": {"dtype": "float32"}}, "use_bias": true, "activity_regularizer": null, "kernel_size": [1, 1]}, "name": "conv2d_22"}, {"class_name": "Add", "inbound_nodes": [[["p_re_lu_20", 0, 0, {}], ["conv2d_22", 0, 0, {}]]], "config": {"dtype": "float32", "trainable": true, "name": "add_10"}, "name": "add_10"}, {"class_name": "PReLU", "inbound_nodes": [[["add_10", 0, 0, {}]]], "config": {"name": "p_re_lu_22", "dtype": "float32", "alpha_constraint": null, "trainable": true, "alpha_regularizer": null, "alpha_initializer": {"class_name": "Zeros", "config": {"dtype": "float32"}}, "shared_axes": [1, 2]}, "name": "p_re_lu_22"}, {"class_name": "Conv2D", "inbound_nodes": [[["p_re_lu_22", 0, 0, {}]]], "config": {"kernel_initializer": {"class_name": "GlorotUniform", "config": {"dtype": "float32", "seed": null}}, "name": "conv2d_23", "kernel_constraint": null, "bias_regularizer": null, "bias_constraint": null, "dtype": "float32", "activation": "linear", "trainable": true, "data_format": "channels_last", "padding": "valid", "strides": [1, 1], "dilation_rate": [1, 1], "kernel_regularizer": null, "filters": 16, "bias_initializer": {"class_name": "Zeros", "config": {"dtype": "float32"}}, "use_bias": true, "activity_regularizer": null, "kernel_size": [1, 1]}, "name": "conv2d_23"}, {"class_name": "PReLU", "inbound_nodes": [[["conv2d_23", 0, 0, {}]]], "config": {"name": "p_re_lu_23", "dtype": "float32", "alpha_constraint": null, "trainable": true, "alpha_regularizer": null, "alpha_initializer": {"class_name": "Zeros", "config": {"dtype": "float32"}}, "shared_axes": [1, 2]}, "name": "p_re_lu_23"}, {"class_name": "DepthwiseConv2D", "inbound_nodes": [[["p_re_lu_23", 0, 0, {}]]], "config": {"depth_multiplier": 1, "name": "depthwise_conv2d_11", "bias_regularizer": null, "bias_constraint": null, "dtype": "float32", "activation": "linear", "trainable": true, "depthwise_constraint": null, "data_format": "channels_last", "padding": "same", "strides": [1, 1], "dilation_rate": [1, 1], "depthwise_initializer": {"class_name": "GlorotUniform", "config": {"dtype": "float32", "seed": null}}, "bias_initializer": {"class_name": "Zeros", "config": {"dtype": "float32"}}, "depthwise_regularizer": null, "use_bias": true, "activity_regularizer": null, "kernel_size": [3, 3]}, "name": "depthwise_conv2d_11"}, {"class_name": "Conv2D", "inbound_nodes": [[["depthwise_conv2d_11", 0, 0, {}]]], "config": {"kernel_initializer": {"class_name": "GlorotUniform", "config": {"dtype": "float32", "seed": null}}, "name": "conv2d_24", "kernel_constraint": null, "bias_regularizer": null, "bias_constraint": null, "dtype": "float32", "activation": "linear", "trainable": true, "data_format": "channels_last", "padding": "valid", "strides": [1, 1], "dilation_rate": [1, 1], "kernel_regularizer": null, "filters": 32, "bias_initializer": {"class_name": "Zeros", "config": {"dtype": "float32"}}, "use_bias": true, "activity_regularizer": null, "kernel_size": [1, 1]}, "name": "conv2d_24"}, {"class_name": "Add", "inbound_nodes": [[["p_re_lu_22", 0, 0, {}], ["conv2d_24", 0, 0, {}]]], "config": {"dtype": "float32", "trainable": true, "name": "add_11"}, "name": "add_11"}, {"class_name": "PReLU", "inbound_nodes": [[["add_11", 0, 0, {}]]], "config": {"name": "p_re_lu_24", "dtype": "float32", "alpha_constraint": null, "trainable": true, "alpha_regularizer": null, "alpha_initializer": {"class_name": "Zeros", "config": {"dtype": "float32"}}, "shared_axes": [1, 2]}, "name": "p_re_lu_24"}, {"class_name": "Conv2D", "inbound_nodes": [[["p_re_lu_24", 0, 0, {}]]], "config": {"kernel_initializer": {"class_name": "GlorotUniform", "config": {"dtype": "float32", "seed": null}}, "name": "conv2d_25", "kernel_constraint": null, "bias_regularizer": null, "bias_constraint": null, "dtype": "float32", "activation": "linear", "trainable": true, "data_format": "channels_last", "padding": "valid", "strides": [1, 1], "dilation_rate": [1, 1], "kernel_regularizer": null, "filters": 16, "bias_initializer": {"class_name": "Zeros", "config": {"dtype": "float32"}}, "use_bias": true, "activity_regularizer": null, "kernel_size": [1, 1]}, "name": "conv2d_25"}, {"class_name": "PReLU", "inbound_nodes": [[["conv2d_25", 0, 0, {}]]], "config": {"name": "p_re_lu_25", "dtype": "float32", "alpha_constraint": null, "trainable": true, "alpha_regularizer": null, "alpha_initializer": {"class_name": "Zeros", "config": {"dtype": "float32"}}, "shared_axes": [1, 2]}, "name": "p_re_lu_25"}, {"class_name": "DepthwiseConv2D", "inbound_nodes": [[["p_re_lu_25", 0, 0, {}]]], "config": {"depth_multiplier": 1, "name": "depthwise_conv2d_12", "bias_regularizer": null, "bias_constraint": null, "dtype": "float32", "activation": "linear", "trainable": true, "depthwise_constraint": null, "data_format": "channels_last", "padding": "same", "strides": [1, 1], "dilation_rate": [1, 1], "depthwise_initializer": {"class_name": "GlorotUniform", "config": {"dtype": "float32", "seed": null}}, "bias_initializer": {"class_name": "Zeros", "config": {"dtype": "float32"}}, "depthwise_regularizer": null, "use_bias": true, "activity_regularizer": null, "kernel_size": [3, 3]}, "name": "depthwise_conv2d_12"}, {"class_name": "Conv2D", "inbound_nodes": [[["depthwise_conv2d_12", 0, 0, {}]]], "config": {"kernel_initializer": {"class_name": "GlorotUniform", "config": {"dtype": "float32", "seed": null}}, "name": "conv2d_26", "kernel_constraint": null, "bias_regularizer": null, "bias_constraint": null, "dtype": "float32", "activation": "linear", "trainable": true, "data_format": "channels_last", "padding": "valid", "strides": [1, 1], "dilation_rate": [1, 1], "kernel_regularizer": null, "filters": 32, "bias_initializer": {"class_name": "Zeros", "config": {"dtype": "float32"}}, "use_bias": true, "activity_regularizer": null, "kernel_size": [1, 1]}, "name": "conv2d_26"}, {"class_name": "Add", "inbound_nodes": [[["p_re_lu_24", 0, 0, {}], ["conv2d_26", 0, 0, {}]]], "config": {"dtype": "float32", "trainable": true, "name": "add_12"}, "name": "add_12"}, {"class_name": "PReLU", "inbound_nodes": [[["add_12", 0, 0, {}]]], "config": {"name": "p_re_lu_26", "dtype": "float32", "alpha_constraint": null, "trainable": true, "alpha_regularizer": null, "alpha_initializer": {"class_name": "Zeros", "config": {"dtype": "float32"}}, "shared_axes": [1, 2]}, "name": "p_re_lu_26"}, {"class_name": "Conv2D", "inbound_nodes": [[["p_re_lu_26", 0, 0, {}]]], "config": {"kernel_initializer": {"class_name": "GlorotUniform", "config": {"dtype": "float32", "seed": null}}, "name": "conv2d_27", "kernel_constraint": null, "bias_regularizer": null, "bias_constraint": null, "dtype": "float32", "activation": "linear", "trainable": true, "data_format": "channels_last", "padding": "valid", "strides": [1, 1], "dilation_rate": [1, 1], "kernel_regularizer": null, "filters": 16, "bias_initializer": {"class_name": "Zeros", "config": {"dtype": "float32"}}, "use_bias": true, "activity_regularizer": null, "kernel_size": [1, 1]}, "name": "conv2d_27"}, {"class_name": "PReLU", "inbound_nodes": [[["conv2d_27", 0, 0, {}]]], "config": {"name": "p_re_lu_27", "dtype": "float32", "alpha_constraint": null, "trainable": true, "alpha_regularizer": null, "alpha_initializer": {"class_name": "Zeros", "config": {"dtype": "float32"}}, "shared_axes": [1, 2]}, "name": "p_re_lu_27"}, {"class_name": "DepthwiseConv2D", "inbound_nodes": [[["p_re_lu_27", 0, 0, {}]]], "config": {"depth_multiplier": 1, "name": "depthwise_conv2d_13", "bias_regularizer": null, "bias_constraint": null, "dtype": "float32", "activation": "linear", "trainable": true, "depthwise_constraint": null, "data_format": "channels_last", "padding": "same", "strides": [1, 1], "dilation_rate": [1, 1], "depthwise_initializer": {"class_name": "GlorotUniform", "config": {"dtype": "float32", "seed": null}}, "bias_initializer": {"class_name": "Zeros", "config": {"dtype": "float32"}}, "depthwise_regularizer": null, "use_bias": true, "activity_regularizer": null, "kernel_size": [3, 3]}, "name": "depthwise_conv2d_13"}, {"class_name": "Conv2D", "inbound_nodes": [[["depthwise_conv2d_13", 0, 0, {}]]], "config": {"kernel_initializer": {"class_name": "GlorotUniform", "config": {"dtype": "float32", "seed": null}}, "name": "conv2d_28", "kernel_constraint": null, "bias_regularizer": null, "bias_constraint": null, "dtype": "float32", "activation": "linear", "trainable": true, "data_format": "channels_last", "padding": "valid", "strides": [1, 1], "dilation_rate": [1, 1], "kernel_regularizer": null, "filters": 32, "bias_initializer": {"class_name": "Zeros", "config": {"dtype": "float32"}}, "use_bias": true, "activity_regularizer": null, "kernel_size": [1, 1]}, "name": "conv2d_28"}, {"class_name": "Add", "inbound_nodes": [[["p_re_lu_26", 0, 0, {}], ["conv2d_28", 0, 0, {}]]], "config": {"dtype": "float32", "trainable": true, "name": "add_13"}, "name": "add_13"}, {"class_name": "PReLU", "inbound_nodes": [[["add_13", 0, 0, {}]]], "config": {"name": "p_re_lu_28", "dtype": "float32", "alpha_constraint": null, "trainable": true, "alpha_regularizer": null, "alpha_initializer": {"class_name": "Zeros", "config": {"dtype": "float32"}}, "shared_axes": [1, 2]}, "name": "p_re_lu_28"}, {"class_name": "Conv2D", "inbound_nodes": [[["p_re_lu_28", 0, 0, {}]]], "config": {"kernel_initializer": {"class_name": "GlorotUniform", "config": {"dtype": "float32", "seed": null}}, "name": "conv2d_29", "kernel_constraint": null, "bias_regularizer": null, "bias_constraint": null, "dtype": "float32", "activation": "linear", "trainable": true, "data_format": "channels_last", "padding": "valid", "strides": [1, 1], "dilation_rate": [1, 1], "kernel_regularizer": null, "filters": 16, "bias_initializer": {"class_name": "Zeros", "config": {"dtype": "float32"}}, "use_bias": true, "activity_regularizer": null, "kernel_size": [1, 1]}, "name": "conv2d_29"}, {"class_name": "PReLU", "inbound_nodes": [[["conv2d_29", 0, 0, {}]]], "config": {"name": "p_re_lu_29", "dtype": "float32", "alpha_constraint": null, "trainable": true, "alpha_regularizer": null, "alpha_initializer": {"class_name": "Zeros", "config": {"dtype": "float32"}}, "shared_axes": [1, 2]}, "name": "p_re_lu_29"}, {"class_name": "DepthwiseConv2D", "inbound_nodes": [[["p_re_lu_29", 0, 0, {}]]], "config": {"depth_multiplier": 1, "name": "depthwise_conv2d_14", "bias_regularizer": null, "bias_constraint": null, "dtype": "float32", "activation": "linear", "trainable": true, "depthwise_constraint": null, "data_format": "channels_last", "padding": "same", "strides": [1, 1], "dilation_rate": [1, 1], "depthwise_initializer": {"class_name": "GlorotUniform", "config": {"dtype": "float32", "seed": null}}, "bias_initializer": {"class_name": "Zeros", "config": {"dtype": "float32"}}, "depthwise_regularizer": null, "use_bias": true, "activity_regularizer": null, "kernel_size": [3, 3]}, "name": "depthwise_conv2d_14"}, {"class_name": "Conv2D", "inbound_nodes": [[["depthwise_conv2d_14", 0, 0, {}]]], "config": {"kernel_initializer": {"class_name": "GlorotUniform", "config": {"dtype": "float32", "seed": null}}, "name": "conv2d_30", "kernel_constraint": null, "bias_regularizer": null, "bias_constraint": null, "dtype": "float32", "activation": "linear", "trainable": true, "data_format": "channels_last", "padding": "valid", "strides": [1, 1], "dilation_rate": [1, 1], "kernel_regularizer": null, "filters": 32, "bias_initializer": {"class_name": "Zeros", "config": {"dtype": "float32"}}, "use_bias": true, "activity_regularizer": null, "kernel_size": [1, 1]}, "name": "conv2d_30"}, {"class_name": "Add", "inbound_nodes": [[["p_re_lu_28", 0, 0, {}], ["conv2d_30", 0, 0, {}]]], "config": {"dtype": "float32", "trainable": true, "name": "add_14"}, "name": "add_14"}, {"class_name": "PReLU", "inbound_nodes": [[["add_14", 0, 0, {}]]], "config": {"name": "p_re_lu_30", "dtype": "float32", "alpha_constraint": null, "trainable": true, "alpha_regularizer": null, "alpha_initializer": {"class_name": "Zeros", "config": {"dtype": "float32"}}, "shared_axes": [1, 2]}, "name": "p_re_lu_30"}, {"class_name": "Conv2D", "inbound_nodes": [[["p_re_lu_30", 0, 0, {}]]], "config": {"kernel_initializer": {"class_name": "GlorotUniform", "config": {"dtype": "float32", "seed": null}}, "name": "conv2d_31", "kernel_constraint": null, "bias_regularizer": null, "bias_constraint": null, "dtype": "float32", "activation": "linear", "trainable": true, "data_format": "channels_last", "padding": "valid", "strides": [1, 1], "dilation_rate": [1, 1], "kernel_regularizer": null, "filters": 16, "bias_initializer": {"class_name": "Zeros", "config": {"dtype": "float32"}}, "use_bias": true, "activity_regularizer": null, "kernel_size": [1, 1]}, "name": "conv2d_31"}, {"class_name": "PReLU", "inbound_nodes": [[["conv2d_31", 0, 0, {}]]], "config": {"name": "p_re_lu_31", "dtype": "float32", "alpha_constraint": null, "trainable": true, "alpha_regularizer": null, "alpha_initializer": {"class_name": "Zeros", "config": {"dtype": "float32"}}, "shared_axes": [1, 2]}, "name": "p_re_lu_31"}, {"class_name": "DepthwiseConv2D", "inbound_nodes": [[["p_re_lu_31", 0, 0, {}]]], "config": {"depth_multiplier": 1, "name": "depthwise_conv2d_15", "bias_regularizer": null, "bias_constraint": null, "dtype": "float32", "activation": "linear", "trainable": true, "depthwise_constraint": null, "data_format": "channels_last", "padding": "same", "strides": [1, 1], "dilation_rate": [1, 1], "depthwise_initializer": {"class_name": "GlorotUniform", "config": {"dtype": "float32", "seed": null}}, "bias_initializer": {"class_name": "Zeros", "config": {"dtype": "float32"}}, "depthwise_regularizer": null, "use_bias": true, "activity_regularizer": null, "kernel_size": [3, 3]}, "name": "depthwise_conv2d_15"}, {"class_name": "Conv2D", "inbound_nodes": [[["depthwise_conv2d_15", 0, 0, {}]]], "config": {"kernel_initializer": {"class_name": "GlorotUniform", "config": {"dtype": "float32", "seed": null}}, "name": "conv2d_32", "kernel_constraint": null, "bias_regularizer": null, "bias_constraint": null, "dtype": "float32", "activation": "linear", "trainable": true, "data_format": "channels_last", "padding": "valid", "strides": [1, 1], "dilation_rate": [1, 1], "kernel_regularizer": null, "filters": 32, "bias_initializer": {"class_name": "Zeros", "config": {"dtype": "float32"}}, "use_bias": true, "activity_regularizer": null, "kernel_size": [1, 1]}, "name": "conv2d_32"}, {"class_name": "Add", "inbound_nodes": [[["p_re_lu_30", 0, 0, {}], ["conv2d_32", 0, 0, {}]]], "config": {"dtype": "float32", "trainable": true, "name": "add_15"}, "name": "add_15"}, {"class_name": "PReLU", "inbound_nodes": [[["add_15", 0, 0, {}]]], "config": {"name": "p_re_lu_32", "dtype": "float32", "alpha_constraint": null, "trainable": true, "alpha_regularizer": null, "alpha_initializer": {"class_name": "Zeros", "config": {"dtype": "float32"}}, "shared_axes": [1, 2]}, "name": "p_re_lu_32"}, {"class_name": "Conv2D", "inbound_nodes": [[["p_re_lu_32", 0, 0, {}]]], "config": {"kernel_initializer": {"class_name": "GlorotUniform", "config": {"dtype": "float32", "seed": null}}, "name": "conv2d_33", "kernel_constraint": null, "bias_regularizer": null, "bias_constraint": null, "dtype": "float32", "activation": "linear", "trainable": true, "data_format": "channels_last", "padding": "valid", "strides": [1, 1], "dilation_rate": [1, 1], "kernel_regularizer": null, "filters": 16, "bias_initializer": {"class_name": "Zeros", "config": {"dtype": "float32"}}, "use_bias": true, "activity_regularizer": null, "kernel_size": [1, 1]}, "name": "conv2d_33"}, {"class_name": "PReLU", "inbound_nodes": [[["conv2d_33", 0, 0, {}]]], "config": {"name": "p_re_lu_33", "dtype": "float32", "alpha_constraint": null, "trainable": true, "alpha_regularizer": null, "alpha_initializer": {"class_name": "Zeros", "config": {"dtype": "float32"}}, "shared_axes": [1, 2]}, "name": "p_re_lu_33"}, {"class_name": "DepthwiseConv2D", "inbound_nodes": [[["p_re_lu_33", 0, 0, {}]]], "config": {"depth_multiplier": 1, "name": "depthwise_conv2d_16", "bias_regularizer": null, "bias_constraint": null, "dtype": "float32", "activation": "linear", "trainable": true, "depthwise_constraint": null, "data_format": "channels_last", "padding": "same", "strides": [1, 1], "dilation_rate": [1, 1], "depthwise_initializer": {"class_name": "GlorotUniform", "config": {"dtype": "float32", "seed": null}}, "bias_initializer": {"class_name": "Zeros", "config": {"dtype": "float32"}}, "depthwise_regularizer": null, "use_bias": true, "activity_regularizer": null, "kernel_size": [3, 3]}, "name": "depthwise_conv2d_16"}, {"class_name": "Conv2D", "inbound_nodes": [[["depthwise_conv2d_16", 0, 0, {}]]], "config": {"kernel_initializer": {"class_name": "GlorotUniform", "config": {"dtype": "float32", "seed": null}}, "name": "conv2d_34", "kernel_constraint": null, "bias_regularizer": null, "bias_constraint": null, "dtype": "float32", "activation": "linear", "trainable": true, "data_format": "channels_last", "padding": "valid", "strides": [1, 1], "dilation_rate": [1, 1], "kernel_regularizer": null, "filters": 32, "bias_initializer": {"class_name": "Zeros", "config": {"dtype": "float32"}}, "use_bias": true, "activity_regularizer": null, "kernel_size": [1, 1]}, "name": "conv2d_34"}, {"class_name": "Add", "inbound_nodes": [[["p_re_lu_32", 0, 0, {}], ["conv2d_34", 0, 0, {}]]], "config": {"dtype": "float32", "trainable": true, "name": "add_16"}, "name": "add_16"}, {"class_name": "PReLU", "inbound_nodes": [[["add_16", 0, 0, {}]]], "config": {"name": "p_re_lu_34", "dtype": "float32", "alpha_constraint": null, "trainable": true, "alpha_regularizer": null, "alpha_initializer": {"class_name": "Zeros", "config": {"dtype": "float32"}}, "shared_axes": [1, 2]}, "name": "p_re_lu_34"}, {"class_name": "Conv2D", "inbound_nodes": [[["p_re_lu_34", 0, 0, {}]]], "config": {"kernel_initializer": {"class_name": "GlorotUniform", "config": {"dtype": "float32", "seed": null}}, "name": "conv2d_35", "kernel_constraint": null, "bias_regularizer": null, "bias_constraint": null, "dtype": "float32", "activation": "linear", "trainable": true, "data_format": "channels_last", "padding": "valid", "strides": [2, 2], "dilation_rate": [1, 1], "kernel_regularizer": null, "filters": 32, "bias_initializer": {"class_name": "Zeros", "config": {"dtype": "float32"}}, "use_bias": true, "activity_regularizer": null, "kernel_size": [2, 2]}, "name": "conv2d_35"}, {"class_name": "MaxPooling2D", "inbound_nodes": [[["p_re_lu_34", 0, 0, {}]]], "config": {"name": "max_pooling2d_1", "dtype": "float32", "trainable": true, "data_format": "channels_last", "pool_size": [2, 2], "padding": "valid", "strides": [2, 2]}, "name": "max_pooling2d_1"}, {"class_name": "PReLU", "inbound_nodes": [[["conv2d_35", 0, 0, {}]]], "config": {"name": "p_re_lu_35", "dtype": "float32", "alpha_constraint": null, "trainable": true, "alpha_regularizer": null, "alpha_initializer": {"class_name": "Zeros", "config": {"dtype": "float32"}}, "shared_axes": [1, 2]}, "name": "p_re_lu_35"}, {"class_name": "Lambda", "inbound_nodes": [[["max_pooling2d_1", 0, 0, {}]]], "config": {"function": ["YwEAAAAHAAAABQAAABNgAQBzYgAAAGQBAGQAAGwAAH0BAHwBAGoBAHwAAIMBAGQBABl9AgB8AABq\nAQBqAgCDAABcBAB9AwB9BAB9BQB9AwB8AQBqAwB8AgB8BAB8BQCIAABnBABkAgB8AABqBACDAQF9\nBgB8BgBTKAMAAABOaQAAAAB0BQAAAGR0eXBlKAUAAAB0CgAAAHRlbnNvcmZsb3d0BQAAAHNoYXBl\ndAcAAABhc19saXN0dAUAAAB6ZXJvc1IAAAAAKAcAAAB0AQAAAHh0AgAAAHRmdAoAAABiYXRjaF9z\naXpldAEAAABfdAEAAAB3dAEAAABodAMAAABwYWQoAQAAAHQFAAAAYWZ0ZXIoAAAAAHMKAAAAY29u\ndmVydC5weXQIAAAAX2dlbl9wYWRKAAAAcwoAAAAAAQwBEwEbASQB\n", null, [32]], "name": "lambda_1", "output_shape_module": null, "dtype": "float32", "trainable": true, "module": "__main__", "function_type": "lambda", "output_shape_type": "raw", "output_shape": null, "arguments": {}}, "name": "lambda_1"}, {"class_name": "DepthwiseConv2D", "inbound_nodes": [[["p_re_lu_35", 0, 0, {}]]], "config": {"depth_multiplier": 1, "name": "depthwise_conv2d_17", "bias_regularizer": null, "bias_constraint": null, "dtype": "float32", "activation": "linear", "trainable": true, "depthwise_constraint": null, "data_format": "channels_last", "padding": "same", "strides": [1, 1], "dilation_rate": [1, 1], "depthwise_initializer": {"class_name": "GlorotUniform", "config": {"dtype": "float32", "seed": null}}, "bias_initializer": {"class_name": "Zeros", "config": {"dtype": "float32"}}, "depthwise_regularizer": null, "use_bias": true, "activity_regularizer": null, "kernel_size": [3, 3]}, "name": "depthwise_conv2d_17"}, {"class_name": "Concatenate", "inbound_nodes": [[["max_pooling2d_1", 0, 0, {}], ["lambda_1", 0, 0, {}]]], "config": {"dtype": "float32", "trainable": true, "name": "concatenate_1", "axis": 3}, "name": "concatenate_1"}, {"class_name": "Conv2D", "inbound_nodes": [[["depthwise_conv2d_17", 0, 0, {}]]], "config": {"kernel_initializer": {"class_name": "GlorotUniform", "config": {"dtype": "float32", "seed": null}}, "name": "conv2d_36", "kernel_constraint": null, "bias_regularizer": null, "bias_constraint": null, "dtype": "float32", "activation": "linear", "trainable": true, "data_format": "channels_last", "padding": "valid", "strides": [1, 1], "dilation_rate": [1, 1], "kernel_regularizer": null, "filters": 64, "bias_initializer": {"class_name": "Zeros", "config": {"dtype": "float32"}}, "use_bias": true, "activity_regularizer": null, "kernel_size": [1, 1]}, "name": "conv2d_36"}, {"class_name": "Add", "inbound_nodes": [[["concatenate_1", 0, 0, {}], ["conv2d_36", 0, 0, {}]]], "config": {"dtype": "float32", "trainable": true, "name": "add_17"}, "name": "add_17"}, {"class_name": "PReLU", "inbound_nodes": [[["add_17", 0, 0, {}]]], "config": {"name": "p_re_lu_36", "dtype": "float32", "alpha_constraint": null, "trainable": true, "alpha_regularizer": null, "alpha_initializer": {"class_name": "Zeros", "config": {"dtype": "float32"}}, "shared_axes": [1, 2]}, "name": "p_re_lu_36"}, {"class_name": "Conv2D", "inbound_nodes": [[["p_re_lu_36", 0, 0, {}]]], "config": {"kernel_initializer": {"class_name": "GlorotUniform", "config": {"dtype": "float32", "seed": null}}, "name": "conv2d_37", "kernel_constraint": null, "bias_regularizer": null, "bias_constraint": null, "dtype": "float32", "activation": "linear", "trainable": true, "data_format": "channels_last", "padding": "valid", "strides": [1, 1], "dilation_rate": [1, 1], "kernel_regularizer": null, "filters": 32, "bias_initializer": {"class_name": "Zeros", "config": {"dtype": "float32"}}, "use_bias": true, "activity_regularizer": null, "kernel_size": [1, 1]}, "name": "conv2d_37"}, {"class_name": "PReLU", "inbound_nodes": [[["conv2d_37", 0, 0, {}]]], "config": {"name": "p_re_lu_37", "dtype": "float32", "alpha_constraint": null, "trainable": true, "alpha_regularizer": null, "alpha_initializer": {"class_name": "Zeros", "config": {"dtype": "float32"}}, "shared_axes": [1, 2]}, "name": "p_re_lu_37"}, {"class_name": "DepthwiseConv2D", "inbound_nodes": [[["p_re_lu_37", 0, 0, {}]]], "config": {"depth_multiplier": 1, "name": "depthwise_conv2d_18", "bias_regularizer": null, "bias_constraint": null, "dtype": "float32", "activation": "linear", "trainable": true, "depthwise_constraint": null, "data_format": "channels_last", "padding": "same", "strides": [1, 1], "dilation_rate": [1, 1], "depthwise_initializer": {"class_name": "GlorotUniform", "config": {"dtype": "float32", "seed": null}}, "bias_initializer": {"class_name": "Zeros", "config": {"dtype": "float32"}}, "depthwise_regularizer": null, "use_bias": true, "activity_regularizer": null, "kernel_size": [3, 3]}, "name": "depthwise_conv2d_18"}, {"class_name": "Conv2D", "inbound_nodes": [[["depthwise_conv2d_18", 0, 0, {}]]], "config": {"kernel_initializer": {"class_name": "GlorotUniform", "config": {"dtype": "float32", "seed": null}}, "name": "conv2d_38", "kernel_constraint": null, "bias_regularizer": null, "bias_constraint": null, "dtype": "float32", "activation": "linear", "trainable": true, "data_format": "channels_last", "padding": "valid", "strides": [1, 1], "dilation_rate": [1, 1], "kernel_regularizer": null, "filters": 64, "bias_initializer": {"class_name": "Zeros", "config": {"dtype": "float32"}}, "use_bias": true, "activity_regularizer": null, "kernel_size": [1, 1]}, "name": "conv2d_38"}, {"class_name": "Add", "inbound_nodes": [[["p_re_lu_36", 0, 0, {}], ["conv2d_38", 0, 0, {}]]], "config": {"dtype": "float32", "trainable": true, "name": "add_18"}, "name": "add_18"}, {"class_name": "PReLU", "inbound_nodes": [[["add_18", 0, 0, {}]]], "config": {"name": "p_re_lu_38", "dtype": "float32", "alpha_constraint": null, "trainable": true, "alpha_regularizer": null, "alpha_initializer": {"class_name": "Zeros", "config": {"dtype": "float32"}}, "shared_axes": [1, 2]}, "name": "p_re_lu_38"}, {"class_name": "Conv2D", "inbound_nodes": [[["p_re_lu_38", 0, 0, {}]]], "config": {"kernel_initializer": {"class_name": "GlorotUniform", "config": {"dtype": "float32", "seed": null}}, "name": "conv2d_39", "kernel_constraint": null, "bias_regularizer": null, "bias_constraint": null, "dtype": "float32", "activation": "linear", "trainable": true, "data_format": "channels_last", "padding": "valid", "strides": [1, 1], "dilation_rate": [1, 1], "kernel_regularizer": null, "filters": 32, "bias_initializer": {"class_name": "Zeros", "config": {"dtype": "float32"}}, "use_bias": true, "activity_regularizer": null, "kernel_size": [1, 1]}, "name": "conv2d_39"}, {"class_name": "PReLU", "inbound_nodes": [[["conv2d_39", 0, 0, {}]]], "config": {"name": "p_re_lu_39", "dtype": "float32", "alpha_constraint": null, "trainable": true, "alpha_regularizer": null, "alpha_initializer": {"class_name": "Zeros", "config": {"dtype": "float32"}}, "shared_axes": [1, 2]}, "name": "p_re_lu_39"}, {"class_name": "DepthwiseConv2D", "inbound_nodes": [[["p_re_lu_39", 0, 0, {}]]], "config": {"depth_multiplier": 1, "name": "depthwise_conv2d_19", "bias_regularizer": null, "bias_constraint": null, "dtype": "float32", "activation": "linear", "trainable": true, "depthwise_constraint": null, "data_format": "channels_last", "padding": "same", "strides": [1, 1], "dilation_rate": [1, 1], "depthwise_initializer": {"class_name": "GlorotUniform", "config": {"dtype": "float32", "seed": null}}, "bias_initializer": {"class_name": "Zeros", "config": {"dtype": "float32"}}, "depthwise_regularizer": null, "use_bias": true, "activity_regularizer": null, "kernel_size": [3, 3]}, "name": "depthwise_conv2d_19"}, {"class_name": "Conv2D", "inbound_nodes": [[["depthwise_conv2d_19", 0, 0, {}]]], "config": {"kernel_initializer": {"class_name": "GlorotUniform", "config": {"dtype": "float32", "seed": null}}, "name": "conv2d_40", "kernel_constraint": null, "bias_regularizer": null, "bias_constraint": null, "dtype": "float32", "activation": "linear", "trainable": true, "data_format": "channels_last", "padding": "valid", "strides": [1, 1], "dilation_rate": [1, 1], "kernel_regularizer": null, "filters": 64, "bias_initializer": {"class_name": "Zeros", "config": {"dtype": "float32"}}, "use_bias": true, "activity_regularizer": null, "kernel_size": [1, 1]}, "name": "conv2d_40"}, {"class_name": "Add", "inbound_nodes": [[["p_re_lu_38", 0, 0, {}], ["conv2d_40", 0, 0, {}]]], "config": {"dtype": "float32", "trainable": true, "name": "add_19"}, "name": "add_19"}, {"class_name": "PReLU", "inbound_nodes": [[["add_19", 0, 0, {}]]], "config": {"name": "p_re_lu_40", "dtype": "float32", "alpha_constraint": null, "trainable": true, "alpha_regularizer": null, "alpha_initializer": {"class_name": "Zeros", "config": {"dtype": "float32"}}, "shared_axes": [1, 2]}, "name": "p_re_lu_40"}, {"class_name": "Conv2D", "inbound_nodes": [[["p_re_lu_40", 0, 0, {}]]], "config": {"kernel_initializer": {"class_name": "GlorotUniform", "config": {"dtype": "float32", "seed": null}}, "name": "conv2d_41", "kernel_constraint": null, "bias_regularizer": null, "bias_constraint": null, "dtype": "float32", "activation": "linear", "trainable": true, "data_format": "channels_last", "padding": "valid", "strides": [1, 1], "dilation_rate": [1, 1], "kernel_regularizer": null, "filters": 32, "bias_initializer": {"class_name": "Zeros", "config": {"dtype": "float32"}}, "use_bias": true, "activity_regularizer": null, "kernel_size": [1, 1]}, "name": "conv2d_41"}, {"class_name": "PReLU", "inbound_nodes": [[["conv2d_41", 0, 0, {}]]], "config": {"name": "p_re_lu_41", "dtype": "float32", "alpha_constraint": null, "trainable": true, "alpha_regularizer": null, "alpha_initializer": {"class_name": "Zeros", "config": {"dtype": "float32"}}, "shared_axes": [1, 2]}, "name": "p_re_lu_41"}, {"class_name": "DepthwiseConv2D", "inbound_nodes": [[["p_re_lu_41", 0, 0, {}]]], "config": {"depth_multiplier": 1, "name": "depthwise_conv2d_20", "bias_regularizer": null, "bias_constraint": null, "dtype": "float32", "activation": "linear", "trainable": true, "depthwise_constraint": null, "data_format": "channels_last", "padding": "same", "strides": [1, 1], "dilation_rate": [1, 1], "depthwise_initializer": {"class_name": "GlorotUniform", "config": {"dtype": "float32", "seed": null}}, "bias_initializer": {"class_name": "Zeros", "config": {"dtype": "float32"}}, "depthwise_regularizer": null, "use_bias": true, "activity_regularizer": null, "kernel_size": [3, 3]}, "name": "depthwise_conv2d_20"}, {"class_name": "Conv2D", "inbound_nodes": [[["depthwise_conv2d_20", 0, 0, {}]]], "config": {"kernel_initializer": {"class_name": "GlorotUniform", "config": {"dtype": "float32", "seed": null}}, "name": "conv2d_42", "kernel_constraint": null, "bias_regularizer": null, "bias_constraint": null, "dtype": "float32", "activation": "linear", "trainable": true, "data_format": "channels_last", "padding": "valid", "strides": [1, 1], "dilation_rate": [1, 1], "kernel_regularizer": null, "filters": 64, "bias_initializer": {"class_name": "Zeros", "config": {"dtype": "float32"}}, "use_bias": true, "activity_regularizer": null, "kernel_size": [1, 1]}, "name": "conv2d_42"}, {"class_name": "Add", "inbound_nodes": [[["p_re_lu_40", 0, 0, {}], ["conv2d_42", 0, 0, {}]]], "config": {"dtype": "float32", "trainable": true, "name": "add_20"}, "name": "add_20"}, {"class_name": "PReLU", "inbound_nodes": [[["add_20", 0, 0, {}]]], "config": {"name": "p_re_lu_42", "dtype": "float32", "alpha_constraint": null, "trainable": true, "alpha_regularizer": null, "alpha_initializer": {"class_name": "Zeros", "config": {"dtype": "float32"}}, "shared_axes": [1, 2]}, "name": "p_re_lu_42"}, {"class_name": "Conv2D", "inbound_nodes": [[["p_re_lu_42", 0, 0, {}]]], "config": {"kernel_initializer": {"class_name": "GlorotUniform", "config": {"dtype": "float32", "seed": null}}, "name": "conv2d_43", "kernel_constraint": null, "bias_regularizer": null, "bias_constraint": null, "dtype": "float32", "activation": "linear", "trainable": true, "data_format": "channels_last", "padding": "valid", "strides": [1, 1], "dilation_rate": [1, 1], "kernel_regularizer": null, "filters": 32, "bias_initializer": {"class_name": "Zeros", "config": {"dtype": "float32"}}, "use_bias": true, "activity_regularizer": null, "kernel_size": [1, 1]}, "name": "conv2d_43"}, {"class_name": "PReLU", "inbound_nodes": [[["conv2d_43", 0, 0, {}]]], "config": {"name": "p_re_lu_43", "dtype": "float32", "alpha_constraint": null, "trainable": true, "alpha_regularizer": null, "alpha_initializer": {"class_name": "Zeros", "config": {"dtype": "float32"}}, "shared_axes": [1, 2]}, "name": "p_re_lu_43"}, {"class_name": "DepthwiseConv2D", "inbound_nodes": [[["p_re_lu_43", 0, 0, {}]]], "config": {"depth_multiplier": 1, "name": "depthwise_conv2d_21", "bias_regularizer": null, "bias_constraint": null, "dtype": "float32", "activation": "linear", "trainable": true, "depthwise_constraint": null, "data_format": "channels_last", "padding": "same", "strides": [1, 1], "dilation_rate": [1, 1], "depthwise_initializer": {"class_name": "GlorotUniform", "config": {"dtype": "float32", "seed": null}}, "bias_initializer": {"class_name": "Zeros", "config": {"dtype": "float32"}}, "depthwise_regularizer": null, "use_bias": true, "activity_regularizer": null, "kernel_size": [3, 3]}, "name": "depthwise_conv2d_21"}, {"class_name": "Conv2D", "inbound_nodes": [[["depthwise_conv2d_21", 0, 0, {}]]], "config": {"kernel_initializer": {"class_name": "GlorotUniform", "config": {"dtype": "float32", "seed": null}}, "name": "conv2d_44", "kernel_constraint": null, "bias_regularizer": null, "bias_constraint": null, "dtype": "float32", "activation": "linear", "trainable": true, "data_format": "channels_last", "padding": "valid", "strides": [1, 1], "dilation_rate": [1, 1], "kernel_regularizer": null, "filters": 64, "bias_initializer": {"class_name": "Zeros", "config": {"dtype": "float32"}}, "use_bias": true, "activity_regularizer": null, "kernel_size": [1, 1]}, "name": "conv2d_44"}, {"class_name": "Add", "inbound_nodes": [[["p_re_lu_42", 0, 0, {}], ["conv2d_44", 0, 0, {}]]], "config": {"dtype": "float32", "trainable": true, "name": "add_21"}, "name": "add_21"}, {"class_name": "PReLU", "inbound_nodes": [[["add_21", 0, 0, {}]]], "config": {"name": "p_re_lu_44", "dtype": "float32", "alpha_constraint": null, "trainable": true, "alpha_regularizer": null, "alpha_initializer": {"class_name": "Zeros", "config": {"dtype": "float32"}}, "shared_axes": [1, 2]}, "name": "p_re_lu_44"}, {"class_name": "Conv2D", "inbound_nodes": [[["p_re_lu_44", 0, 0, {}]]], "config": {"kernel_initializer": {"class_name": "GlorotUniform", "config": {"dtype": "float32", "seed": null}}, "name": "conv2d_45", "kernel_constraint": null, "bias_regularizer": null, "bias_constraint": null, "dtype": "float32", "activation": "linear", "trainable": true, "data_format": "channels_last", "padding": "valid", "strides": [1, 1], "dilation_rate": [1, 1], "kernel_regularizer": null, "filters": 32, "bias_initializer": {"class_name": "Zeros", "config": {"dtype": "float32"}}, "use_bias": true, "activity_regularizer": null, "kernel_size": [1, 1]}, "name": "conv2d_45"}, {"class_name": "PReLU", "inbound_nodes": [[["conv2d_45", 0, 0, {}]]], "config": {"name": "p_re_lu_45", "dtype": "float32", "alpha_constraint": null, "trainable": true, "alpha_regularizer": null, "alpha_initializer": {"class_name": "Zeros", "config": {"dtype": "float32"}}, "shared_axes": [1, 2]}, "name": "p_re_lu_45"}, {"class_name": "DepthwiseConv2D", "inbound_nodes": [[["p_re_lu_45", 0, 0, {}]]], "config": {"depth_multiplier": 1, "name": "depthwise_conv2d_22", "bias_regularizer": null, "bias_constraint": null, "dtype": "float32", "activation": "linear", "trainable": true, "depthwise_constraint": null, "data_format": "channels_last", "padding": "same", "strides": [1, 1], "dilation_rate": [1, 1], "depthwise_initializer": {"class_name": "GlorotUniform", "config": {"dtype": "float32", "seed": null}}, "bias_initializer": {"class_name": "Zeros", "config": {"dtype": "float32"}}, "depthwise_regularizer": null, "use_bias": true, "activity_regularizer": null, "kernel_size": [3, 3]}, "name": "depthwise_conv2d_22"}, {"class_name": "Conv2D", "inbound_nodes": [[["depthwise_conv2d_22", 0, 0, {}]]], "config": {"kernel_initializer": {"class_name": "GlorotUniform", "config": {"dtype": "float32", "seed": null}}, "name": "conv2d_46", "kernel_constraint": null, "bias_regularizer": null, "bias_constraint": null, "dtype": "float32", "activation": "linear", "trainable": true, "data_format": "channels_last", "padding": "valid", "strides": [1, 1], "dilation_rate": [1, 1], "kernel_regularizer": null, "filters": 64, "bias_initializer": {"class_name": "Zeros", "config": {"dtype": "float32"}}, "use_bias": true, "activity_regularizer": null, "kernel_size": [1, 1]}, "name": "conv2d_46"}, {"class_name": "Add", "inbound_nodes": [[["p_re_lu_44", 0, 0, {}], ["conv2d_46", 0, 0, {}]]], "config": {"dtype": "float32", "trainable": true, "name": "add_22"}, "name": "add_22"}, {"class_name": "PReLU", "inbound_nodes": [[["add_22", 0, 0, {}]]], "config": {"name": "p_re_lu_46", "dtype": "float32", "alpha_constraint": null, "trainable": true, "alpha_regularizer": null, "alpha_initializer": {"class_name": "Zeros", "config": {"dtype": "float32"}}, "shared_axes": [1, 2]}, "name": "p_re_lu_46"}, {"class_name": "Conv2D", "inbound_nodes": [[["p_re_lu_46", 0, 0, {}]]], "config": {"kernel_initializer": {"class_name": "GlorotUniform", "config": {"dtype": "float32", "seed": null}}, "name": "conv2d_47", "kernel_constraint": null, "bias_regularizer": null, "bias_constraint": null, "dtype": "float32", "activation": "linear", "trainable": true, "data_format": "channels_last", "padding": "valid", "strides": [1, 1], "dilation_rate": [1, 1], "kernel_regularizer": null, "filters": 32, "bias_initializer": {"class_name": "Zeros", "config": {"dtype": "float32"}}, "use_bias": true, "activity_regularizer": null, "kernel_size": [1, 1]}, "name": "conv2d_47"}, {"class_name": "PReLU", "inbound_nodes": [[["conv2d_47", 0, 0, {}]]], "config": {"name": "p_re_lu_47", "dtype": "float32", "alpha_constraint": null, "trainable": true, "alpha_regularizer": null, "alpha_initializer": {"class_name": "Zeros", "config": {"dtype": "float32"}}, "shared_axes": [1, 2]}, "name": "p_re_lu_47"}, {"class_name": "DepthwiseConv2D", "inbound_nodes": [[["p_re_lu_47", 0, 0, {}]]], "config": {"depth_multiplier": 1, "name": "depthwise_conv2d_23", "bias_regularizer": null, "bias_constraint": null, "dtype": "float32", "activation": "linear", "trainable": true, "depthwise_constraint": null, "data_format": "channels_last", "padding": "same", "strides": [1, 1], "dilation_rate": [1, 1], "depthwise_initializer": {"class_name": "GlorotUniform", "config": {"dtype": "float32", "seed": null}}, "bias_initializer": {"class_name": "Zeros", "config": {"dtype": "float32"}}, "depthwise_regularizer": null, "use_bias": true, "activity_regularizer": null, "kernel_size": [3, 3]}, "name": "depthwise_conv2d_23"}, {"class_name": "Conv2D", "inbound_nodes": [[["depthwise_conv2d_23", 0, 0, {}]]], "config": {"kernel_initializer": {"class_name": "GlorotUniform", "config": {"dtype": "float32", "seed": null}}, "name": "conv2d_48", "kernel_constraint": null, "bias_regularizer": null, "bias_constraint": null, "dtype": "float32", "activation": "linear", "trainable": true, "data_format": "channels_last", "padding": "valid", "strides": [1, 1], "dilation_rate": [1, 1], "kernel_regularizer": null, "filters": 64, "bias_initializer": {"class_name": "Zeros", "config": {"dtype": "float32"}}, "use_bias": true, "activity_regularizer": null, "kernel_size": [1, 1]}, "name": "conv2d_48"}, {"class_name": "Add", "inbound_nodes": [[["p_re_lu_46", 0, 0, {}], ["conv2d_48", 0, 0, {}]]], "config": {"dtype": "float32", "trainable": true, "name": "add_23"}, "name": "add_23"}, {"class_name": "PReLU", "inbound_nodes": [[["add_23", 0, 0, {}]]], "config": {"name": "p_re_lu_48", "dtype": "float32", "alpha_constraint": null, "trainable": true, "alpha_regularizer": null, "alpha_initializer": {"class_name": "Zeros", "config": {"dtype": "float32"}}, "shared_axes": [1, 2]}, "name": "p_re_lu_48"}, {"class_name": "Conv2D", "inbound_nodes": [[["p_re_lu_48", 0, 0, {}]]], "config": {"kernel_initializer": {"class_name": "GlorotUniform", "config": {"dtype": "float32", "seed": null}}, "name": "conv2d_49", "kernel_constraint": null, "bias_regularizer": null, "bias_constraint": null, "dtype": "float32", "activation": "linear", "trainable": true, "data_format": "channels_last", "padding": "valid", "strides": [1, 1], "dilation_rate": [1, 1], "kernel_regularizer": null, "filters": 32, "bias_initializer": {"class_name": "Zeros", "config": {"dtype": "float32"}}, "use_bias": true, "activity_regularizer": null, "kernel_size": [1, 1]}, "name": "conv2d_49"}, {"class_name": "PReLU", "inbound_nodes": [[["conv2d_49", 0, 0, {}]]], "config": {"name": "p_re_lu_49", "dtype": "float32", "alpha_constraint": null, "trainable": true, "alpha_regularizer": null, "alpha_initializer": {"class_name": "Zeros", "config": {"dtype": "float32"}}, "shared_axes": [1, 2]}, "name": "p_re_lu_49"}, {"class_name": "DepthwiseConv2D", "inbound_nodes": [[["p_re_lu_49", 0, 0, {}]]], "config": {"depth_multiplier": 1, "name": "depthwise_conv2d_24", "bias_regularizer": null, "bias_constraint": null, "dtype": "float32", "activation": "linear", "trainable": true, "depthwise_constraint": null, "data_format": "channels_last", "padding": "same", "strides": [1, 1], "dilation_rate": [1, 1], "depthwise_initializer": {"class_name": "GlorotUniform", "config": {"dtype": "float32", "seed": null}}, "bias_initializer": {"class_name": "Zeros", "config": {"dtype": "float32"}}, "depthwise_regularizer": null, "use_bias": true, "activity_regularizer": null, "kernel_size": [3, 3]}, "name": "depthwise_conv2d_24"}, {"class_name": "Conv2D", "inbound_nodes": [[["depthwise_conv2d_24", 0, 0, {}]]], "config": {"kernel_initializer": {"class_name": "GlorotUniform", "config": {"dtype": "float32", "seed": null}}, "name": "conv2d_50", "kernel_constraint": null, "bias_regularizer": null, "bias_constraint": null, "dtype": "float32", "activation": "linear", "trainable": true, "data_format": "channels_last", "padding": "valid", "strides": [1, 1], "dilation_rate": [1, 1], "kernel_regularizer": null, "filters": 64, "bias_initializer": {"class_name": "Zeros", "config": {"dtype": "float32"}}, "use_bias": true, "activity_regularizer": null, "kernel_size": [1, 1]}, "name": "conv2d_50"}, {"class_name": "Add", "inbound_nodes": [[["p_re_lu_48", 0, 0, {}], ["conv2d_50", 0, 0, {}]]], "config": {"dtype": "float32", "trainable": true, "name": "add_24"}, "name": "add_24"}, {"class_name": "PReLU", "inbound_nodes": [[["add_24", 0, 0, {}]]], "config": {"name": "p_re_lu_50", "dtype": "float32", "alpha_constraint": null, "trainable": true, "alpha_regularizer": null, "alpha_initializer": {"class_name": "Zeros", "config": {"dtype": "float32"}}, "shared_axes": [1, 2]}, "name": "p_re_lu_50"}, {"class_name": "Conv2D", "inbound_nodes": [[["p_re_lu_50", 0, 0, {}]]], "config": {"kernel_initializer": {"class_name": "GlorotUniform", "config": {"dtype": "float32", "seed": null}}, "name": "conv2d_51", "kernel_constraint": null, "bias_regularizer": null, "bias_constraint": null, "dtype": "float32", "activation": "linear", "trainable": true, "data_format": "channels_last", "padding": "valid", "strides": [1, 1], "dilation_rate": [1, 1], "kernel_regularizer": null, "filters": 32, "bias_initializer": {"class_name": "Zeros", "config": {"dtype": "float32"}}, "use_bias": true, "activity_regularizer": null, "kernel_size": [1, 1]}, "name": "conv2d_51"}, {"class_name": "PReLU", "inbound_nodes": [[["conv2d_51", 0, 0, {}]]], "config": {"name": "p_re_lu_51", "dtype": "float32", "alpha_constraint": null, "trainable": true, "alpha_regularizer": null, "alpha_initializer": {"class_name": "Zeros", "config": {"dtype": "float32"}}, "shared_axes": [1, 2]}, "name": "p_re_lu_51"}, {"class_name": "DepthwiseConv2D", "inbound_nodes": [[["p_re_lu_51", 0, 0, {}]]], "config": {"depth_multiplier": 1, "name": "depthwise_conv2d_25", "bias_regularizer": null, "bias_constraint": null, "dtype": "float32", "activation": "linear", "trainable": true, "depthwise_constraint": null, "data_format": "channels_last", "padding": "same", "strides": [1, 1], "dilation_rate": [1, 1], "depthwise_initializer": {"class_name": "GlorotUniform", "config": {"dtype": "float32", "seed": null}}, "bias_initializer": {"class_name": "Zeros", "config": {"dtype": "float32"}}, "depthwise_regularizer": null, "use_bias": true, "activity_regularizer": null, "kernel_size": [3, 3]}, "name": "depthwise_conv2d_25"}, {"class_name": "Conv2D", "inbound_nodes": [[["depthwise_conv2d_25", 0, 0, {}]]], "config": {"kernel_initializer": {"class_name": "GlorotUniform", "config": {"dtype": "float32", "seed": null}}, "name": "conv2d_52", "kernel_constraint": null, "bias_regularizer": null, "bias_constraint": null, "dtype": "float32", "activation": "linear", "trainable": true, "data_format": "channels_last", "padding": "valid", "strides": [1, 1], "dilation_rate": [1, 1], "kernel_regularizer": null, "filters": 64, "bias_initializer": {"class_name": "Zeros", "config": {"dtype": "float32"}}, "use_bias": true, "activity_regularizer": null, "kernel_size": [1, 1]}, "name": "conv2d_52"}, {"class_name": "Add", "inbound_nodes": [[["p_re_lu_50", 0, 0, {}], ["conv2d_52", 0, 0, {}]]], "config": {"dtype": "float32", "trainable": true, "name": "add_25"}, "name": "add_25"}, {"class_name": "PReLU", "inbound_nodes": [[["add_25", 0, 0, {}]]], "config": {"name": "p_re_lu_52", "dtype": "float32", "alpha_constraint": null, "trainable": true, "alpha_regularizer": null, "alpha_initializer": {"class_name": "Zeros", "config": {"dtype": "float32"}}, "shared_axes": [1, 2]}, "name": "p_re_lu_52"}, {"class_name": "Conv2D", "inbound_nodes": [[["p_re_lu_52", 0, 0, {}]]], "config": {"kernel_initializer": {"class_name": "GlorotUniform", "config": {"dtype": "float32", "seed": null}}, "name": "conv2d_53", "kernel_constraint": null, "bias_regularizer": null, "bias_constraint": null, "dtype": "float32", "activation": "linear", "trainable": true, "data_format": "channels_last", "padding": "valid", "strides": [2, 2], "dilation_rate": [1, 1], "kernel_regularizer": null, "filters": 128, "bias_initializer": {"class_name": "Zeros", "config": {"dtype": "float32"}}, "use_bias": true, "activity_regularizer": null, "kernel_size": [2, 2]}, "name": "conv2d_53"}, {"class_name": "MaxPooling2D", "inbound_nodes": [[["p_re_lu_52", 0, 0, {}]]], "config": {"name": "max_pooling2d_2", "dtype": "float32", "trainable": true, "data_format": "channels_last", "pool_size": [2, 2], "padding": "valid", "strides": [2, 2]}, "name": "max_pooling2d_2"}, {"class_name": "PReLU", "inbound_nodes": [[["conv2d_53", 0, 0, {}]]], "config": {"name": "p_re_lu_53", "dtype": "float32", "alpha_constraint": null, "trainable": true, "alpha_regularizer": null, "alpha_initializer": {"class_name": "Zeros", "config": {"dtype": "float32"}}, "shared_axes": [1, 2]}, "name": "p_re_lu_53"}, {"class_name": "Lambda", "inbound_nodes": [[["max_pooling2d_2", 0, 0, {}]]], "config": {"function": ["YwEAAAAHAAAABQAAABNgAQBzYgAAAGQBAGQAAGwAAH0BAHwBAGoBAHwAAIMBAGQBABl9AgB8AABq\nAQBqAgCDAABcBAB9AwB9BAB9BQB9AwB8AQBqAwB8AgB8BAB8BQCIAABnBABkAgB8AABqBACDAQF9\nBgB8BgBTKAMAAABOaQAAAAB0BQAAAGR0eXBlKAUAAAB0CgAAAHRlbnNvcmZsb3d0BQAAAHNoYXBl\ndAcAAABhc19saXN0dAUAAAB6ZXJvc1IAAAAAKAcAAAB0AQAAAHh0AgAAAHRmdAoAAABiYXRjaF9z\naXpldAEAAABfdAEAAAB3dAEAAABodAMAAABwYWQoAQAAAHQFAAAAYWZ0ZXIoAAAAAHMKAAAAY29u\ndmVydC5weXQIAAAAX2dlbl9wYWRKAAAAcwoAAAAAAQwBEwEbASQB\n", null, [192]], "name": "lambda_2", "output_shape_module": null, "dtype": "float32", "trainable": true, "module": "__main__", "function_type": "lambda", "output_shape_type": "raw", "output_shape": null, "arguments": {}}, "name": "lambda_2"}, {"class_name": "DepthwiseConv2D", "inbound_nodes": [[["p_re_lu_53", 0, 0, {}]]], "config": {"depth_multiplier": 1, "name": "depthwise_conv2d_26", "bias_regularizer": null, "bias_constraint": null, "dtype": "float32", "activation": "linear", "trainable": true, "depthwise_constraint": null, "data_format": "channels_last", "padding": "same", "strides": [1, 1], "dilation_rate": [1, 1], "depthwise_initializer": {"class_name": "GlorotUniform", "config": {"dtype": "float32", "seed": null}}, "bias_initializer": {"class_name": "Zeros", "config": {"dtype": "float32"}}, "depthwise_regularizer": null, "use_bias": true, "activity_regularizer": null, "kernel_size": [3, 3]}, "name": "depthwise_conv2d_26"}, {"class_name": "Concatenate", "inbound_nodes": [[["max_pooling2d_2", 0, 0, {}], ["lambda_2", 0, 0, {}]]], "config": {"dtype": "float32", "trainable": true, "name": "concatenate_2", "axis": 3}, "name": "concatenate_2"}, {"class_name": "Conv2D", "inbound_nodes": [[["depthwise_conv2d_26", 0, 0, {}]]], "config": {"kernel_initializer": {"class_name": "GlorotUniform", "config": {"dtype": "float32", "seed": null}}, "name": "conv2d_54", "kernel_constraint": null, "bias_regularizer": null, "bias_constraint": null, "dtype": "float32", "activation": "linear", "trainable": true, "data_format": "channels_last", "padding": "valid", "strides": [1, 1], "dilation_rate": [1, 1], "kernel_regularizer": null, "filters": 256, "bias_initializer": {"class_name": "Zeros", "config": {"dtype": "float32"}}, "use_bias": true, "activity_regularizer": null, "kernel_size": [1, 1]}, "name": "conv2d_54"}, {"class_name": "Add", "inbound_nodes": [[["concatenate_2", 0, 0, {}], ["conv2d_54", 0, 0, {}]]], "config": {"dtype": "float32", "trainable": true, "name": "add_26"}, "name": "add_26"}, {"class_name": "PReLU", "inbound_nodes": [[["add_26", 0, 0, {}]]], "config": {"name": "p_re_lu_54", "dtype": "float32", "alpha_constraint": null, "trainable": true, "alpha_regularizer": null, "alpha_initializer": {"class_name": "Zeros", "config": {"dtype": "float32"}}, "shared_axes": [1, 2]}, "name": "p_re_lu_54"}, {"class_name": "Conv2D", "inbound_nodes": [[["p_re_lu_54", 0, 0, {}]]], "config": {"kernel_initializer": {"class_name": "GlorotUniform", "config": {"dtype": "float32", "seed": null}}, "name": "conv2d_55", "kernel_constraint": null, "bias_regularizer": null, "bias_constraint": null, "dtype": "float32", "activation": "linear", "trainable": true, "data_format": "channels_last", "padding": "valid", "strides": [1, 1], "dilation_rate": [1, 1], "kernel_regularizer": null, "filters": 128, "bias_initializer": {"class_name": "Zeros", "config": {"dtype": "float32"}}, "use_bias": true, "activity_regularizer": null, "kernel_size": [1, 1]}, "name": "conv2d_55"}, {"class_name": "PReLU", "inbound_nodes": [[["conv2d_55", 0, 0, {}]]], "config": {"name": "p_re_lu_55", "dtype": "float32", "alpha_constraint": null, "trainable": true, "alpha_regularizer": null, "alpha_initializer": {"class_name": "Zeros", "config": {"dtype": "float32"}}, "shared_axes": [1, 2]}, "name": "p_re_lu_55"}, {"class_name": "DepthwiseConv2D", "inbound_nodes": [[["p_re_lu_55", 0, 0, {}]]], "config": {"depth_multiplier": 1, "name": "depthwise_conv2d_27", "bias_regularizer": null, "bias_constraint": null, "dtype": "float32", "activation": "linear", "trainable": true, "depthwise_constraint": null, "data_format": "channels_last", "padding": "same", "strides": [1, 1], "dilation_rate": [1, 1], "depthwise_initializer": {"class_name": "GlorotUniform", "config": {"dtype": "float32", "seed": null}}, "bias_initializer": {"class_name": "Zeros", "config": {"dtype": "float32"}}, "depthwise_regularizer": null, "use_bias": true, "activity_regularizer": null, "kernel_size": [3, 3]}, "name": "depthwise_conv2d_27"}, {"class_name": "Conv2D", "inbound_nodes": [[["depthwise_conv2d_27", 0, 0, {}]]], "config": {"kernel_initializer": {"class_name": "GlorotUniform", "config": {"dtype": "float32", "seed": null}}, "name": "conv2d_56", "kernel_constraint": null, "bias_regularizer": null, "bias_constraint": null, "dtype": "float32", "activation": "linear", "trainable": true, "data_format": "channels_last", "padding": "valid", "strides": [1, 1], "dilation_rate": [1, 1], "kernel_regularizer": null, "filters": 256, "bias_initializer": {"class_name": "Zeros", "config": {"dtype": "float32"}}, "use_bias": true, "activity_regularizer": null, "kernel_size": [1, 1]}, "name": "conv2d_56"}, {"class_name": "Add", "inbound_nodes": [[["p_re_lu_54", 0, 0, {}], ["conv2d_56", 0, 0, {}]]], "config": {"dtype": "float32", "trainable": true, "name": "add_27"}, "name": "add_27"}, {"class_name": "PReLU", "inbound_nodes": [[["add_27", 0, 0, {}]]], "config": {"name": "p_re_lu_56", "dtype": "float32", "alpha_constraint": null, "trainable": true, "alpha_regularizer": null, "alpha_initializer": {"class_name": "Zeros", "config": {"dtype": "float32"}}, "shared_axes": [1, 2]}, "name": "p_re_lu_56"}, {"class_name": "Conv2D", "inbound_nodes": [[["p_re_lu_56", 0, 0, {}]]], "config": {"kernel_initializer": {"class_name": "GlorotUniform", "config": {"dtype": "float32", "seed": null}}, "name": "conv2d_57", "kernel_constraint": null, "bias_regularizer": null, "bias_constraint": null, "dtype": "float32", "activation": "linear", "trainable": true, "data_format": "channels_last", "padding": "valid", "strides": [1, 1], "dilation_rate": [1, 1], "kernel_regularizer": null, "filters": 128, "bias_initializer": {"class_name": "Zeros", "config": {"dtype": "float32"}}, "use_bias": true, "activity_regularizer": null, "kernel_size": [1, 1]}, "name": "conv2d_57"}, {"class_name": "PReLU", "inbound_nodes": [[["conv2d_57", 0, 0, {}]]], "config": {"name": "p_re_lu_57", "dtype": "float32", "alpha_constraint": null, "trainable": true, "alpha_regularizer": null, "alpha_initializer": {"class_name": "Zeros", "config": {"dtype": "float32"}}, "shared_axes": [1, 2]}, "name": "p_re_lu_57"}, {"class_name": "DepthwiseConv2D", "inbound_nodes": [[["p_re_lu_57", 0, 0, {}]]], "config": {"depth_multiplier": 1, "name": "depthwise_conv2d_28", "bias_regularizer": null, "bias_constraint": null, "dtype": "float32", "activation": "linear", "trainable": true, "depthwise_constraint": null, "data_format": "channels_last", "padding": "same", "strides": [1, 1], "dilation_rate": [1, 1], "depthwise_initializer": {"class_name": "GlorotUniform", "config": {"dtype": "float32", "seed": null}}, "bias_initializer": {"class_name": "Zeros", "config": {"dtype": "float32"}}, "depthwise_regularizer": null, "use_bias": true, "activity_regularizer": null, "kernel_size": [3, 3]}, "name": "depthwise_conv2d_28"}, {"class_name": "Conv2D", "inbound_nodes": [[["depthwise_conv2d_28", 0, 0, {}]]], "config": {"kernel_initializer": {"class_name": "GlorotUniform", "config": {"dtype": "float32", "seed": null}}, "name": "conv2d_58", "kernel_constraint": null, "bias_regularizer": null, "bias_constraint": null, "dtype": "float32", "activation": "linear", "trainable": true, "data_format": "channels_last", "padding": "valid", "strides": [1, 1], "dilation_rate": [1, 1], "kernel_regularizer": null, "filters": 256, "bias_initializer": {"class_name": "Zeros", "config": {"dtype": "float32"}}, "use_bias": true, "activity_regularizer": null, "kernel_size": [1, 1]}, "name": "conv2d_58"}, {"class_name": "Add", "inbound_nodes": [[["p_re_lu_56", 0, 0, {}], ["conv2d_58", 0, 0, {}]]], "config": {"dtype": "float32", "trainable": true, "name": "add_28"}, "name": "add_28"}, {"class_name": "PReLU", "inbound_nodes": [[["add_28", 0, 0, {}]]], "config": {"name": "p_re_lu_58", "dtype": "float32", "alpha_constraint": null, "trainable": true, "alpha_regularizer": null, "alpha_initializer": {"class_name": "Zeros", "config": {"dtype": "float32"}}, "shared_axes": [1, 2]}, "name": "p_re_lu_58"}, {"class_name": "Conv2D", "inbound_nodes": [[["p_re_lu_58", 0, 0, {}]]], "config": {"kernel_initializer": {"class_name": "GlorotUniform", "config": {"dtype": "float32", "seed": null}}, "name": "conv2d_59", "kernel_constraint": null, "bias_regularizer": null, "bias_constraint": null, "dtype": "float32", "activation": "linear", "trainable": true, "data_format": "channels_last", "padding": "valid", "strides": [1, 1], "dilation_rate": [1, 1], "kernel_regularizer": null, "filters": 128, "bias_initializer": {"class_name": "Zeros", "config": {"dtype": "float32"}}, "use_bias": true, "activity_regularizer": null, "kernel_size": [1, 1]}, "name": "conv2d_59"}, {"class_name": "PReLU", "inbound_nodes": [[["conv2d_59", 0, 0, {}]]], "config": {"name": "p_re_lu_59", "dtype": "float32", "alpha_constraint": null, "trainable": true, "alpha_regularizer": null, "alpha_initializer": {"class_name": "Zeros", "config": {"dtype": "float32"}}, "shared_axes": [1, 2]}, "name": "p_re_lu_59"}, {"class_name": "DepthwiseConv2D", "inbound_nodes": [[["p_re_lu_59", 0, 0, {}]]], "config": {"depth_multiplier": 1, "name": "depthwise_conv2d_29", "bias_regularizer": null, "bias_constraint": null, "dtype": "float32", "activation": "linear", "trainable": true, "depthwise_constraint": null, "data_format": "channels_last", "padding": "same", "strides": [1, 1], "dilation_rate": [1, 1], "depthwise_initializer": {"class_name": "GlorotUniform", "config": {"dtype": "float32", "seed": null}}, "bias_initializer": {"class_name": "Zeros", "config": {"dtype": "float32"}}, "depthwise_regularizer": null, "use_bias": true, "activity_regularizer": null, "kernel_size": [3, 3]}, "name": "depthwise_conv2d_29"}, {"class_name": "Conv2D", "inbound_nodes": [[["depthwise_conv2d_29", 0, 0, {}]]], "config": {"kernel_initializer": {"class_name": "GlorotUniform", "config": {"dtype": "float32", "seed": null}}, "name": "conv2d_60", "kernel_constraint": null, "bias_regularizer": null, "bias_constraint": null, "dtype": "float32", "activation": "linear", "trainable": true, "data_format": "channels_last", "padding": "valid", "strides": [1, 1], "dilation_rate": [1, 1], "kernel_regularizer": null, "filters": 256, "bias_initializer": {"class_name": "Zeros", "config": {"dtype": "float32"}}, "use_bias": true, "activity_regularizer": null, "kernel_size": [1, 1]}, "name": "conv2d_60"}, {"class_name": "Add", "inbound_nodes": [[["p_re_lu_58", 0, 0, {}], ["conv2d_60", 0, 0, {}]]], "config": {"dtype": "float32", "trainable": true, "name": "add_29"}, "name": "add_29"}, {"class_name": "PReLU", "inbound_nodes": [[["add_29", 0, 0, {}]]], "config": {"name": "p_re_lu_60", "dtype": "float32", "alpha_constraint": null, "trainable": true, "alpha_regularizer": null, "alpha_initializer": {"class_name": "Zeros", "config": {"dtype": "float32"}}, "shared_axes": [1, 2]}, "name": "p_re_lu_60"}, {"class_name": "Conv2D", "inbound_nodes": [[["p_re_lu_60", 0, 0, {}]]], "config": {"kernel_initializer": {"class_name": "GlorotUniform", "config": {"dtype": "float32", "seed": null}}, "name": "conv2d_61", "kernel_constraint": null, "bias_regularizer": null, "bias_constraint": null, "dtype": "float32", "activation": "linear", "trainable": true, "data_format": "channels_last", "padding": "valid", "strides": [1, 1], "dilation_rate": [1, 1], "kernel_regularizer": null, "filters": 128, "bias_initializer": {"class_name": "Zeros", "config": {"dtype": "float32"}}, "use_bias": true, "activity_regularizer": null, "kernel_size": [1, 1]}, "name": "conv2d_61"}, {"class_name": "PReLU", "inbound_nodes": [[["conv2d_61", 0, 0, {}]]], "config": {"name": "p_re_lu_61", "dtype": "float32", "alpha_constraint": null, "trainable": true, "alpha_regularizer": null, "alpha_initializer": {"class_name": "Zeros", "config": {"dtype": "float32"}}, "shared_axes": [1, 2]}, "name": "p_re_lu_61"}, {"class_name": "DepthwiseConv2D", "inbound_nodes": [[["p_re_lu_61", 0, 0, {}]]], "config": {"depth_multiplier": 1, "name": "depthwise_conv2d_30", "bias_regularizer": null, "bias_constraint": null, "dtype": "float32", "activation": "linear", "trainable": true, "depthwise_constraint": null, "data_format": "channels_last", "padding": "same", "strides": [1, 1], "dilation_rate": [1, 1], "depthwise_initializer": {"class_name": "GlorotUniform", "config": {"dtype": "float32", "seed": null}}, "bias_initializer": {"class_name": "Zeros", "config": {"dtype": "float32"}}, "depthwise_regularizer": null, "use_bias": true, "activity_regularizer": null, "kernel_size": [3, 3]}, "name": "depthwise_conv2d_30"}, {"class_name": "Conv2D", "inbound_nodes": [[["depthwise_conv2d_30", 0, 0, {}]]], "config": {"kernel_initializer": {"class_name": "GlorotUniform", "config": {"dtype": "float32", "seed": null}}, "name": "conv2d_62", "kernel_constraint": null, "bias_regularizer": null, "bias_constraint": null, "dtype": "float32", "activation": "linear", "trainable": true, "data_format": "channels_last", "padding": "valid", "strides": [1, 1], "dilation_rate": [1, 1], "kernel_regularizer": null, "filters": 256, "bias_initializer": {"class_name": "Zeros", "config": {"dtype": "float32"}}, "use_bias": true, "activity_regularizer": null, "kernel_size": [1, 1]}, "name": "conv2d_62"}, {"class_name": "Add", "inbound_nodes": [[["p_re_lu_60", 0, 0, {}], ["conv2d_62", 0, 0, {}]]], "config": {"dtype": "float32", "trainable": true, "name": "add_30"}, "name": "add_30"}, {"class_name": "PReLU", "inbound_nodes": [[["add_30", 0, 0, {}]]], "config": {"name": "p_re_lu_62", "dtype": "float32", "alpha_constraint": null, "trainable": true, "alpha_regularizer": null, "alpha_initializer": {"class_name": "Zeros", "config": {"dtype": "float32"}}, "shared_axes": [1, 2]}, "name": "p_re_lu_62"}, {"class_name": "Conv2D", "inbound_nodes": [[["p_re_lu_62", 0, 0, {}]]], "config": {"kernel_initializer": {"class_name": "GlorotUniform", "config": {"dtype": "float32", "seed": null}}, "name": "conv2d_63", "kernel_constraint": null, "bias_regularizer": null, "bias_constraint": null, "dtype": "float32", "activation": "linear", "trainable": true, "data_format": "channels_last", "padding": "valid", "strides": [1, 1], "dilation_rate": [1, 1], "kernel_regularizer": null, "filters": 128, "bias_initializer": {"class_name": "Zeros", "config": {"dtype": "float32"}}, "use_bias": true, "activity_regularizer": null, "kernel_size": [1, 1]}, "name": "conv2d_63"}, {"class_name": "PReLU", "inbound_nodes": [[["conv2d_63", 0, 0, {}]]], "config": {"name": "p_re_lu_63", "dtype": "float32", "alpha_constraint": null, "trainable": true, "alpha_regularizer": null, "alpha_initializer": {"class_name": "Zeros", "config": {"dtype": "float32"}}, "shared_axes": [1, 2]}, "name": "p_re_lu_63"}, {"class_name": "DepthwiseConv2D", "inbound_nodes": [[["p_re_lu_63", 0, 0, {}]]], "config": {"depth_multiplier": 1, "name": "depthwise_conv2d_31", "bias_regularizer": null, "bias_constraint": null, "dtype": "float32", "activation": "linear", "trainable": true, "depthwise_constraint": null, "data_format": "channels_last", "padding": "same", "strides": [1, 1], "dilation_rate": [1, 1], "depthwise_initializer": {"class_name": "GlorotUniform", "config": {"dtype": "float32", "seed": null}}, "bias_initializer": {"class_name": "Zeros", "config": {"dtype": "float32"}}, "depthwise_regularizer": null, "use_bias": true, "activity_regularizer": null, "kernel_size": [3, 3]}, "name": "depthwise_conv2d_31"}, {"class_name": "Conv2D", "inbound_nodes": [[["depthwise_conv2d_31", 0, 0, {}]]], "config": {"kernel_initializer": {"class_name": "GlorotUniform", "config": {"dtype": "float32", "seed": null}}, "name": "conv2d_64", "kernel_constraint": null, "bias_regularizer": null, "bias_constraint": null, "dtype": "float32", "activation": "linear", "trainable": true, "data_format": "channels_last", "padding": "valid", "strides": [1, 1], "dilation_rate": [1, 1], "kernel_regularizer": null, "filters": 256, "bias_initializer": {"class_name": "Zeros", "config": {"dtype": "float32"}}, "use_bias": true, "activity_regularizer": null, "kernel_size": [1, 1]}, "name": "conv2d_64"}, {"class_name": "Add", "inbound_nodes": [[["p_re_lu_62", 0, 0, {}], ["conv2d_64", 0, 0, {}]]], "config": {"dtype": "float32", "trainable": true, "name": "add_31"}, "name": "add_31"}, {"class_name": "PReLU", "inbound_nodes": [[["add_31", 0, 0, {}]]], "config": {"name": "p_re_lu_64", "dtype": "float32", "alpha_constraint": null, "trainable": true, "alpha_regularizer": null, "alpha_initializer": {"class_name": "Zeros", "config": {"dtype": "float32"}}, "shared_axes": [1, 2]}, "name": "p_re_lu_64"}, {"class_name": "Conv2D", "inbound_nodes": [[["p_re_lu_64", 0, 0, {}]]], "config": {"kernel_initializer": {"class_name": "GlorotUniform", "config": {"dtype": "float32", "seed": null}}, "name": "conv2d_65", "kernel_constraint": null, "bias_regularizer": null, "bias_constraint": null, "dtype": "float32", "activation": "linear", "trainable": true, "data_format": "channels_last", "padding": "valid", "strides": [1, 1], "dilation_rate": [1, 1], "kernel_regularizer": null, "filters": 128, "bias_initializer": {"class_name": "Zeros", "config": {"dtype": "float32"}}, "use_bias": true, "activity_regularizer": null, "kernel_size": [1, 1]}, "name": "conv2d_65"}, {"class_name": "PReLU", "inbound_nodes": [[["conv2d_65", 0, 0, {}]]], "config": {"name": "p_re_lu_65", "dtype": "float32", "alpha_constraint": null, "trainable": true, "alpha_regularizer": null, "alpha_initializer": {"class_name": "Zeros", "config": {"dtype": "float32"}}, "shared_axes": [1, 2]}, "name": "p_re_lu_65"}, {"class_name": "DepthwiseConv2D", "inbound_nodes": [[["p_re_lu_65", 0, 0, {}]]], "config": {"depth_multiplier": 1, "name": "depthwise_conv2d_32", "bias_regularizer": null, "bias_constraint": null, "dtype": "float32", "activation": "linear", "trainable": true, "depthwise_constraint": null, "data_format": "channels_last", "padding": "same", "strides": [1, 1], "dilation_rate": [1, 1], "depthwise_initializer": {"class_name": "GlorotUniform", "config": {"dtype": "float32", "seed": null}}, "bias_initializer": {"class_name": "Zeros", "config": {"dtype": "float32"}}, "depthwise_regularizer": null, "use_bias": true, "activity_regularizer": null, "kernel_size": [3, 3]}, "name": "depthwise_conv2d_32"}, {"class_name": "Conv2D", "inbound_nodes": [[["depthwise_conv2d_32", 0, 0, {}]]], "config": {"kernel_initializer": {"class_name": "GlorotUniform", "config": {"dtype": "float32", "seed": null}}, "name": "conv2d_66", "kernel_constraint": null, "bias_regularizer": null, "bias_constraint": null, "dtype": "float32", "activation": "linear", "trainable": true, "data_format": "channels_last", "padding": "valid", "strides": [1, 1], "dilation_rate": [1, 1], "kernel_regularizer": null, "filters": 256, "bias_initializer": {"class_name": "Zeros", "config": {"dtype": "float32"}}, "use_bias": true, "activity_regularizer": null, "kernel_size": [1, 1]}, "name": "conv2d_66"}, {"class_name": "Add", "inbound_nodes": [[["p_re_lu_64", 0, 0, {}], ["conv2d_66", 0, 0, {}]]], "config": {"dtype": "float32", "trainable": true, "name": "add_32"}, "name": "add_32"}, {"class_name": "PReLU", "inbound_nodes": [[["add_32", 0, 0, {}]]], "config": {"name": "p_re_lu_66", "dtype": "float32", "alpha_constraint": null, "trainable": true, "alpha_regularizer": null, "alpha_initializer": {"class_name": "Zeros", "config": {"dtype": "float32"}}, "shared_axes": [1, 2]}, "name": "p_re_lu_66"}, {"class_name": "Conv2D", "inbound_nodes": [[["p_re_lu_66", 0, 0, {}]]], "config": {"kernel_initializer": {"class_name": "GlorotUniform", "config": {"dtype": "float32", "seed": null}}, "name": "conv2d_67", "kernel_constraint": null, "bias_regularizer": null, "bias_constraint": null, "dtype": "float32", "activation": "linear", "trainable": true, "data_format": "channels_last", "padding": "valid", "strides": [1, 1], "dilation_rate": [1, 1], "kernel_regularizer": null, "filters": 128, "bias_initializer": {"class_name": "Zeros", "config": {"dtype": "float32"}}, "use_bias": true, "activity_regularizer": null, "kernel_size": [1, 1]}, "name": "conv2d_67"}, {"class_name": "PReLU", "inbound_nodes": [[["conv2d_67", 0, 0, {}]]], "config": {"name": "p_re_lu_67", "dtype": "float32", "alpha_constraint": null, "trainable": true, "alpha_regularizer": null, "alpha_initializer": {"class_name": "Zeros", "config": {"dtype": "float32"}}, "shared_axes": [1, 2]}, "name": "p_re_lu_67"}, {"class_name": "DepthwiseConv2D", "inbound_nodes": [[["p_re_lu_67", 0, 0, {}]]], "config": {"depth_multiplier": 1, "name": "depthwise_conv2d_33", "bias_regularizer": null, "bias_constraint": null, "dtype": "float32", "activation": "linear", "trainable": true, "depthwise_constraint": null, "data_format": "channels_last", "padding": "same", "strides": [1, 1], "dilation_rate": [1, 1], "depthwise_initializer": {"class_name": "GlorotUniform", "config": {"dtype": "float32", "seed": null}}, "bias_initializer": {"class_name": "Zeros", "config": {"dtype": "float32"}}, "depthwise_regularizer": null, "use_bias": true, "activity_regularizer": null, "kernel_size": [3, 3]}, "name": "depthwise_conv2d_33"}, {"class_name": "Conv2D", "inbound_nodes": [[["depthwise_conv2d_33", 0, 0, {}]]], "config": {"kernel_initializer": {"class_name": "GlorotUniform", "config": {"dtype": "float32", "seed": null}}, "name": "conv2d_68", "kernel_constraint": null, "bias_regularizer": null, "bias_constraint": null, "dtype": "float32", "activation": "linear", "trainable": true, "data_format": "channels_last", "padding": "valid", "strides": [1, 1], "dilation_rate": [1, 1], "kernel_regularizer": null, "filters": 256, "bias_initializer": {"class_name": "Zeros", "config": {"dtype": "float32"}}, "use_bias": true, "activity_regularizer": null, "kernel_size": [1, 1]}, "name": "conv2d_68"}, {"class_name": "Add", "inbound_nodes": [[["p_re_lu_66", 0, 0, {}], ["conv2d_68", 0, 0, {}]]], "config": {"dtype": "float32", "trainable": true, "name": "add_33"}, "name": "add_33"}, {"class_name": "PReLU", "inbound_nodes": [[["add_33", 0, 0, {}]]], "config": {"name": "p_re_lu_68", "dtype": "float32", "alpha_constraint": null, "trainable": true, "alpha_regularizer": null, "alpha_initializer": {"class_name": "Zeros", "config": {"dtype": "float32"}}, "shared_axes": [1, 2]}, "name": "p_re_lu_68"}, {"class_name": "Conv2D", "inbound_nodes": [[["p_re_lu_68", 0, 0, {}]]], "config": {"kernel_initializer": {"class_name": "GlorotUniform", "config": {"dtype": "float32", "seed": null}}, "name": "conv2d_69", "kernel_constraint": null, "bias_regularizer": null, "bias_constraint": null, "dtype": "float32", "activation": "linear", "trainable": true, "data_format": "channels_last", "padding": "valid", "strides": [1, 1], "dilation_rate": [1, 1], "kernel_regularizer": null, "filters": 128, "bias_initializer": {"class_name": "Zeros", "config": {"dtype": "float32"}}, "use_bias": true, "activity_regularizer": null, "kernel_size": [1, 1]}, "name": "conv2d_69"}, {"class_name": "PReLU", "inbound_nodes": [[["conv2d_69", 0, 0, {}]]], "config": {"name": "p_re_lu_69", "dtype": "float32", "alpha_constraint": null, "trainable": true, "alpha_regularizer": null, "alpha_initializer": {"class_name": "Zeros", "config": {"dtype": "float32"}}, "shared_axes": [1, 2]}, "name": "p_re_lu_69"}, {"class_name": "DepthwiseConv2D", "inbound_nodes": [[["p_re_lu_69", 0, 0, {}]]], "config": {"depth_multiplier": 1, "name": "depthwise_conv2d_34", "bias_regularizer": null, "bias_constraint": null, "dtype": "float32", "activation": "linear", "trainable": true, "depthwise_constraint": null, "data_format": "channels_last", "padding": "same", "strides": [1, 1], "dilation_rate": [1, 1], "depthwise_initializer": {"class_name": "GlorotUniform", "config": {"dtype": "float32", "seed": null}}, "bias_initializer": {"class_name": "Zeros", "config": {"dtype": "float32"}}, "depthwise_regularizer": null, "use_bias": true, "activity_regularizer": null, "kernel_size": [3, 3]}, "name": "depthwise_conv2d_34"}, {"class_name": "Conv2D", "inbound_nodes": [[["depthwise_conv2d_34", 0, 0, {}]]], "config": {"kernel_initializer": {"class_name": "GlorotUniform", "config": {"dtype": "float32", "seed": null}}, "name": "conv2d_70", "kernel_constraint": null, "bias_regularizer": null, "bias_constraint": null, "dtype": "float32", "activation": "linear", "trainable": true, "data_format": "channels_last", "padding": "valid", "strides": [1, 1], "dilation_rate": [1, 1], "kernel_regularizer": null, "filters": 256, "bias_initializer": {"class_name": "Zeros", "config": {"dtype": "float32"}}, "use_bias": true, "activity_regularizer": null, "kernel_size": [1, 1]}, "name": "conv2d_70"}, {"class_name": "Add", "inbound_nodes": [[["p_re_lu_68", 0, 0, {}], ["conv2d_70", 0, 0, {}]]], "config": {"dtype": "float32", "trainable": true, "name": "add_34"}, "name": "add_34"}, {"class_name": "PReLU", "inbound_nodes": [[["add_34", 0, 0, {}]]], "config": {"name": "p_re_lu_70", "dtype": "float32", "alpha_constraint": null, "trainable": true, "alpha_regularizer": null, "alpha_initializer": {"class_name": "Zeros", "config": {"dtype": "float32"}}, "shared_axes": [1, 2]}, "name": "p_re_lu_70"}, {"class_name": "Conv2D", "inbound_nodes": [[["p_re_lu_70", 0, 0, {}]]], "config": {"kernel_initializer": {"class_name": "GlorotUniform", "config": {"dtype": "float32", "seed": null}}, "name": "conv2d_71", "kernel_constraint": null, "bias_regularizer": null, "bias_constraint": null, "dtype": "float32", "activation": "linear", "trainable": true, "data_format": "channels_last", "padding": "valid", "strides": [2, 2], "dilation_rate": [1, 1], "kernel_regularizer": null, "filters": 128, "bias_initializer": {"class_name": "Zeros", "config": {"dtype": "float32"}}, "use_bias": true, "activity_regularizer": null, "kernel_size": [2, 2]}, "name": "conv2d_71"}, {"class_name": "PReLU", "inbound_nodes": [[["conv2d_71", 0, 0, {}]]], "config": {"name": "p_re_lu_71", "dtype": "float32", "alpha_constraint": null, "trainable": true, "alpha_regularizer": null, "alpha_initializer": {"class_name": "Zeros", "config": {"dtype": "float32"}}, "shared_axes": [1, 2]}, "name": "p_re_lu_71"}, {"class_name": "DepthwiseConv2D", "inbound_nodes": [[["p_re_lu_71", 0, 0, {}]]], "config": {"depth_multiplier": 1, "name": "depthwise_conv2d_35", "bias_regularizer": null, "bias_constraint": null, "dtype": "float32", "activation": "linear", "trainable": true, "depthwise_constraint": null, "data_format": "channels_last", "padding": "same", "strides": [1, 1], "dilation_rate": [1, 1], "depthwise_initializer": {"class_name": "GlorotUniform", "config": {"dtype": "float32", "seed": null}}, "bias_initializer": {"class_name": "Zeros", "config": {"dtype": "float32"}}, "depthwise_regularizer": null, "use_bias": true, "activity_regularizer": null, "kernel_size": [3, 3]}, "name": "depthwise_conv2d_35"}, {"class_name": "MaxPooling2D", "inbound_nodes": [[["p_re_lu_70", 0, 0, {}]]], "config": {"name": "max_pooling2d_3", "dtype": "float32", "trainable": true, "data_format": "channels_last", "pool_size": [2, 2], "padding": "valid", "strides": [2, 2]}, "name": "max_pooling2d_3"}, {"class_name": "Conv2D", "inbound_nodes": [[["depthwise_conv2d_35", 0, 0, {}]]], "config": {"kernel_initializer": {"class_name": "GlorotUniform", "config": {"dtype": "float32", "seed": null}}, "name": "conv2d_72", "kernel_constraint": null, "bias_regularizer": null, "bias_constraint": null, "dtype": "float32", "activation": "linear", "trainable": true, "data_format": "channels_last", "padding": "valid", "strides": [1, 1], "dilation_rate": [1, 1], "kernel_regularizer": null, "filters": 256, "bias_initializer": {"class_name": "Zeros", "config": {"dtype": "float32"}}, "use_bias": true, "activity_regularizer": null, "kernel_size": [1, 1]}, "name": "conv2d_72"}, {"class_name": "Add", "inbound_nodes": [[["max_pooling2d_3", 0, 0, {}], ["conv2d_72", 0, 0, {}]]], "config": {"dtype": "float32", "trainable": true, "name": "add_35"}, "name": "add_35"}, {"class_name": "PReLU", "inbound_nodes": [[["add_35", 0, 0, {}]]], "config": {"name": "p_re_lu_72", "dtype": "float32", "alpha_constraint": null, "trainable": true, "alpha_regularizer": null, "alpha_initializer": {"class_name": "Zeros", "config": {"dtype": "float32"}}, "shared_axes": [1, 2]}, "name": "p_re_lu_72"}, {"class_name": "Conv2D", "inbound_nodes": [[["p_re_lu_72", 0, 0, {}]]], "config": {"kernel_initializer": {"class_name": "GlorotUniform", "config": {"dtype": "float32", "seed": null}}, "name": "conv2d_73", "kernel_constraint": null, "bias_regularizer": null, "bias_constraint": null, "dtype": "float32", "activation": "linear", "trainable": true, "data_format": "channels_last", "padding": "valid", "strides": [1, 1], "dilation_rate": [1, 1], "kernel_regularizer": null, "filters": 128, "bias_initializer": {"class_name": "Zeros", "config": {"dtype": "float32"}}, "use_bias": true, "activity_regularizer": null, "kernel_size": [1, 1]}, "name": "conv2d_73"}, {"class_name": "PReLU", "inbound_nodes": [[["conv2d_73", 0, 0, {}]]], "config": {"name": "p_re_lu_73", "dtype": "float32", "alpha_constraint": null, "trainable": true, "alpha_regularizer": null, "alpha_initializer": {"class_name": "Zeros", "config": {"dtype": "float32"}}, "shared_axes": [1, 2]}, "name": "p_re_lu_73"}, {"class_name": "DepthwiseConv2D", "inbound_nodes": [[["p_re_lu_73", 0, 0, {}]]], "config": {"depth_multiplier": 1, "name": "depthwise_conv2d_36", "bias_regularizer": null, "bias_constraint": null, "dtype": "float32", "activation": "linear", "trainable": true, "depthwise_constraint": null, "data_format": "channels_last", "padding": "same", "strides": [1, 1], "dilation_rate": [1, 1], "depthwise_initializer": {"class_name": "GlorotUniform", "config": {"dtype": "float32", "seed": null}}, "bias_initializer": {"class_name": "Zeros", "config": {"dtype": "float32"}}, "depthwise_regularizer": null, "use_bias": true, "activity_regularizer": null, "kernel_size": [3, 3]}, "name": "depthwise_conv2d_36"}, {"class_name": "Conv2D", "inbound_nodes": [[["depthwise_conv2d_36", 0, 0, {}]]], "config": {"kernel_initializer": {"class_name": "GlorotUniform", "config": {"dtype": "float32", "seed": null}}, "name": "conv2d_74", "kernel_constraint": null, "bias_regularizer": null, "bias_constraint": null, "dtype": "float32", "activation": "linear", "trainable": true, "data_format": "channels_last", "padding": "valid", "strides": [1, 1], "dilation_rate": [1, 1], "kernel_regularizer": null, "filters": 256, "bias_initializer": {"class_name": "Zeros", "config": {"dtype": "float32"}}, "use_bias": true, "activity_regularizer": null, "kernel_size": [1, 1]}, "name": "conv2d_74"}, {"class_name": "Add", "inbound_nodes": [[["p_re_lu_72", 0, 0, {}], ["conv2d_74", 0, 0, {}]]], "config": {"dtype": "float32", "trainable": true, "name": "add_36"}, "name": "add_36"}, {"class_name": "PReLU", "inbound_nodes": [[["add_36", 0, 0, {}]]], "config": {"name": "p_re_lu_74", "dtype": "float32", "alpha_constraint": null, "trainable": true, "alpha_regularizer": null, "alpha_initializer": {"class_name": "Zeros", "config": {"dtype": "float32"}}, "shared_axes": [1, 2]}, "name": "p_re_lu_74"}, {"class_name": "Conv2D", "inbound_nodes": [[["p_re_lu_74", 0, 0, {}]]], "config": {"kernel_initializer": {"class_name": "GlorotUniform", "config": {"dtype": "float32", "seed": null}}, "name": "conv2d_75", "kernel_constraint": null, "bias_regularizer": null, "bias_constraint": null, "dtype": "float32", "activation": "linear", "trainable": true, "data_format": "channels_last", "padding": "valid", "strides": [1, 1], "dilation_rate": [1, 1], "kernel_regularizer": null, "filters": 128, "bias_initializer": {"class_name": "Zeros", "config": {"dtype": "float32"}}, "use_bias": true, "activity_regularizer": null, "kernel_size": [1, 1]}, "name": "conv2d_75"}, {"class_name": "PReLU", "inbound_nodes": [[["conv2d_75", 0, 0, {}]]], "config": {"name": "p_re_lu_75", "dtype": "float32", "alpha_constraint": null, "trainable": true, "alpha_regularizer": null, "alpha_initializer": {"class_name": "Zeros", "config": {"dtype": "float32"}}, "shared_axes": [1, 2]}, "name": "p_re_lu_75"}, {"class_name": "DepthwiseConv2D", "inbound_nodes": [[["p_re_lu_75", 0, 0, {}]]], "config": {"depth_multiplier": 1, "name": "depthwise_conv2d_37", "bias_regularizer": null, "bias_constraint": null, "dtype": "float32", "activation": "linear", "trainable": true, "depthwise_constraint": null, "data_format": "channels_last", "padding": "same", "strides": [1, 1], "dilation_rate": [1, 1], "depthwise_initializer": {"class_name": "GlorotUniform", "config": {"dtype": "float32", "seed": null}}, "bias_initializer": {"class_name": "Zeros", "config": {"dtype": "float32"}}, "depthwise_regularizer": null, "use_bias": true, "activity_regularizer": null, "kernel_size": [3, 3]}, "name": "depthwise_conv2d_37"}, {"class_name": "Conv2D", "inbound_nodes": [[["depthwise_conv2d_37", 0, 0, {}]]], "config": {"kernel_initializer": {"class_name": "GlorotUniform", "config": {"dtype": "float32", "seed": null}}, "name": "conv2d_76", "kernel_constraint": null, "bias_regularizer": null, "bias_constraint": null, "dtype": "float32", "activation": "linear", "trainable": true, "data_format": "channels_last", "padding": "valid", "strides": [1, 1], "dilation_rate": [1, 1], "kernel_regularizer": null, "filters": 256, "bias_initializer": {"class_name": "Zeros", "config": {"dtype": "float32"}}, "use_bias": true, "activity_regularizer": null, "kernel_size": [1, 1]}, "name": "conv2d_76"}, {"class_name": "Add", "inbound_nodes": [[["p_re_lu_74", 0, 0, {}], ["conv2d_76", 0, 0, {}]]…
 "shared_axes": [1, 2]}, "name": "p_re_lu_91"}, {"class_name": "DepthwiseConv2D", "inbound_nodes": [[["p_re_lu_91", 0, 0, {}]]], "config": {"depth_multiplier": 1, "name": "depthwise_conv2d_45", "bias_regularizer": null, "bias_constraint": null, "dtype": "float32", "activation": "linear", "trainable": true, "depthwise_constraint": null, "data_format": "channels_last", "padding": "same", "strides": [1, 1], "dilation_rate": [1, 1], "depthwise_initializer": {"class_name": "GlorotUniform", "config": {"dtype": "float32", "seed": null}}, "bias_initializer": {"class_name": "Zeros", "config": {"dtype": "float32"}}, "depthwise_regularizer": null, "use_bias": true, "activity_regularizer": null, "kernel_size": [3, 3]}, "name": "depthwise_conv2d_45"}, {"class_name": "Conv2D", "inbound_nodes": [[["depthwise_conv2d_45", 0, 0, {}]]], "config": {"kernel_initializer": {"class_name": "GlorotUniform", "config": {"dtype": "float32", "seed": null}}, "name": "conv2d_92", "kernel_constraint": null, "bias_regularizer": null, "bias_constraint": null, "dtype": "float32", "activation": "linear", "trainable": true, "data_format": "channels_last", "padding": "valid", "strides": [1, 1], "dilation_rate": [1, 1], "kernel_regularizer": null, "filters": 256, "bias_initializer": {"class_name": "Zeros", "config": {"dtype": "float32"}}, "use_bias": true, "activity_regularizer": null, "kernel_size": [1, 1]}, "name": "conv2d_92"}, {"class_name": "Add", "inbound_nodes": [[["p_re_lu_90", 0, 0, {}], ["conv2d_92", 0, 0, {}]]], "config": {"dtype": "float32", "trainable": true, "name": "add_45"}, "name": "add_45"}, {"class_name": "PReLU", "inbound_nodes": [[["add_45", 0, 0, {}]]], "config": {"name": "p_re_lu_92", "dtype": "float32", "alpha_constraint": null, "trainable": true, "alpha_regularizer": null, "alpha_initializer": {"class_name": "Zeros", "config": {"dtype": "float32"}}, "shared_axes": [1, 2]}, "name": "p_re_lu_92"}, {"class_name": "Conv2D", "inbound_nodes": [[["p_re_lu_92", 0, 0, {}]]], "config": {"kernel_initializer": {"class_name": "GlorotUniform", "config": {"dtype": "float32", "seed": null}}, "name": "conv2d_93", "kernel_constraint": null, "bias_regularizer": null, "bias_constraint": null, "dtype": "float32", "activation": "linear", "trainable": true, "data_format": "channels_last", "padding": "valid", "strides": [1, 1], "dilation_rate": [1, 1], "kernel_regularizer": null, "filters": 128, "bias_initializer": {"class_name": "Zeros", "config": {"dtype": "float32"}}, "use_bias": true, "activity_regularizer": null, "kernel_size": [1, 1]}, "name": "conv2d_93"}, {"class_name": "PReLU", "inbound_nodes": [[["conv2d_93", 0, 0, {}]]], "config": {"name": "p_re_lu_93", "dtype": "float32", "alpha_constraint": null, "trainable": true, "alpha_regularizer": null, "alpha_initializer": {"class_name": "Zeros", "config": {"dtype": "float32"}}, "shared_axes": [1, 2]}, "name": "p_re_lu_93"}, {"class_name": "DepthwiseConv2D", "inbound_nodes": [[["p_re_lu_93", 0, 0, {}]]], "config": {"depth_multiplier": 1, "name": "depthwise_conv2d_46", "bias_regularizer": null, "bias_constraint": null, "dtype": "float32", "activation": "linear", "trainable": true, "depthwise_constraint": null, "data_format": "channels_last", "padding": "same", "strides": [1, 1], "dilation_rate": [1, 1], "depthwise_initializer": {"class_name": "GlorotUniform", "config": {"dtype": "float32", "seed": null}}, "bias_initializer": {"class_name": "Zeros", "config": {"dtype": "float32"}}, "depthwise_regularizer": null, "use_bias": true, "activity_regularizer": null, "kernel_size": [3, 3]}, "name": "depthwise_conv2d_46"}, {"class_name": "Conv2D", "inbound_nodes": [[["depthwise_conv2d_46", 0, 0, {}]]], "config": {"kernel_initializer": {"class_name": "GlorotUniform", "config": {"dtype": "float32", "seed": null}}, "name": "conv2d_94", "kernel_constraint": null, "bias_regularizer": null, "bias_constraint": null, "dtype": "float32", "activation": "linear", "trainable": true, "data_format": "channels_last", "padding": "valid", "strides": [1, 1], "dilation_rate": [1, 1], "kernel_regularizer": null, "filters": 256, "bias_initializer": {"class_name": "Zeros", "config": {"dtype": "float32"}}, "use_bias": true, "activity_regularizer": null, "kernel_size": [1, 1]}, "name": "conv2d_94"}, {"class_name": "Add", "inbound_nodes": [[["p_re_lu_92", 0, 0, {}], ["conv2d_94", 0, 0, {}]]], "config": {"dtype": "float32", "trainable": true, "name": "add_46"}, "name": "add_46"}, {"class_name": "PReLU", "inbound_nodes": [[["add_46", 0, 0, {}]]], "config": {"name": "p_re_lu_94", "dtype": "float32", "alpha_constraint": null, "trainable": true, "alpha_regularizer": null, "alpha_initializer": {"class_name": "Zeros", "config": {"dtype": "float32"}}, "shared_axes": [1, 2]}, "name": "p_re_lu_94"}, {"class_name": "Conv2D", "inbound_nodes": [[["p_re_lu_94", 0, 0, {}]]], "config": {"kernel_initializer": {"class_name": "GlorotUniform", "config": {"dtype": "float32", "seed": null}}, "name": "conv2d_95", "kernel_constraint": null, "bias_regularizer": null, "bias_constraint": null, "dtype": "float32", "activation": "linear", "trainable": true, "data_format": "channels_last", "padding": "valid", "strides": [1, 1], "dilation_rate": [1, 1], "kernel_regularizer": null, "filters": 128, "bias_initializer": {"class_name": "Zeros", "config": {"dtype": "float32"}}, "use_bias": true, "activity_regularizer": null, "kernel_size": [1, 1]}, "name": "conv2d_95"}, {"class_name": "PReLU", "inbound_nodes": [[["conv2d_95", 0, 0, {}]]], "config": {"name": "p_re_lu_95", "dtype": "float32", "alpha_constraint": null, "trainable": true, "alpha_regularizer": null, "alpha_initializer": {"class_name": "Zeros", "config": {"dtype": "float32"}}, "shared_axes": [1, 2]}, "name": "p_re_lu_95"}, {"class_name": "DepthwiseConv2D", "inbound_nodes": [[["p_re_lu_95", 0, 0, {}]]], "config": {"depth_multiplier": 1, "name": "depthwise_conv2d_47", "bias_regularizer": null, "bias_constraint": null, "dtype": "float32", "activation": "linear", "trainable": true, "depthwise_constraint": null, "data_format": "channels_last", "padding": "same", "strides": [1, 1], "dilation_rate": [1, 1], "depthwise_initializer": {"class_name": "GlorotUniform", "config": {"dtype": "float32", "seed": null}}, "bias_initializer": {"class_name": "Zeros", "config": {"dtype": "float32"}}, "depthwise_regularizer": null, "use_bias": true, "activity_regularizer": null, "kernel_size": [3, 3]}, "name": "depthwise_conv2d_47"}, {"class_name": "Conv2D", "inbound_nodes": [[["depthwise_conv2d_47", 0, 0, {}]]], "config": {"kernel_initializer": {"class_name": "GlorotUniform", "config": {"dtype": "float32", "seed": null}}, "name": "conv2d_96", "kernel_constraint": null, "bias_regularizer": null, "bias_constraint": null, "dtype": "float32", "activation": "linear", "trainable": true, "data_format": "channels_last", "padding": "valid", "strides": [1, 1], "dilation_rate": [1, 1], "kernel_regularizer": null, "filters": 256, "bias_initializer": {"class_name": "Zeros", "config": {"dtype": "float32"}}, "use_bias": true, "activity_regularizer": null, "kernel_size": [1, 1]}, "name": "conv2d_96"}, {"class_name": "Add", "inbound_nodes": [[["p_re_lu_94", 0, 0, {}], ["conv2d_96", 0, 0, {}]]], "config": {"dtype": "float32", "trainable": true, "name": "add_47"}, "name": "add_47"}, {"class_name": "PReLU", "inbound_nodes": [[["add_47", 0, 0, {}]]], "config": {"name": "p_re_lu_96", "dtype": "float32", "alpha_constraint": null, "trainable": true, "alpha_regularizer": null, "alpha_initializer": {"class_name": "Zeros", "config": {"dtype": "float32"}}, "shared_axes": [1, 2]}, "name": "p_re_lu_96"}, {"class_name": "Conv2D", "inbound_nodes": [[["p_re_lu_96", 0, 0, {}]]], "config": {"kernel_initializer": {"class_name": "GlorotUniform", "config": {"dtype": "float32", "seed": null}}, "name": "conv2d_97", "kernel_constraint": null, "bias_regularizer": null, "bias_constraint": null, "dtype": "float32", "activation": "linear", "trainable": true, "data_format": "channels_last", "padding": "valid", "strides": [1, 1], "dilation_rate": [1, 1], "kernel_regularizer": null, "filters": 128, "bias_initializer": {"class_name": "Zeros", "config": {"dtype": "float32"}}, "use_bias": true, "activity_regularizer": null, "kernel_size": [1, 1]}, "name": "conv2d_97"}, {"class_name": "PReLU", "inbound_nodes": [[["conv2d_97", 0, 0, {}]]], "config": {"name": "p_re_lu_97", "dtype": "float32", "alpha_constraint": null, "trainable": true, "alpha_regularizer": null, "alpha_initializer": {"class_name": "Zeros", "config": {"dtype": "float32"}}, "shared_axes": [1, 2]}, "name": "p_re_lu_97"}, {"class_name": "DepthwiseConv2D", "inbound_nodes": [[["p_re_lu_97", 0, 0, {}]]], "config": {"depth_multiplier": 1, "name": "depthwise_conv2d_48", "bias_regularizer": null, "bias_constraint": null, "dtype": "float32", "activation": "linear", "trainable": true, "depthwise_constraint": null, "data_format": "channels_last", "padding": "same", "strides": [1, 1], "dilation_rate": [1, 1], "depthwise_initializer": {"class_name": "GlorotUniform", "config": {"dtype": "float32", "seed": null}}, "bias_initializer": {"class_name": "Zeros", "config": {"dtype": "float32"}}, "depthwise_regularizer": null, "use_bias": true, "activity_regularizer": null, "kernel_size": [3, 3]}, "name": "depthwise_conv2d_48"}, {"class_name": "Conv2D", "inbound_nodes": [[["depthwise_conv2d_48", 0, 0, {}]]], "config": {"kernel_initializer": {"class_name": "GlorotUniform", "config": {"dtype": "float32", "seed": null}}, "name": "conv2d_98", "kernel_constraint": null, "bias_regularizer": null, "bias_constraint": null, "dtype": "float32", "activation": "linear", "trainable": true, "data_format": "channels_last", "padding": "valid", "strides": [1, 1], "dilation_rate": [1, 1], "kernel_regularizer": null, "filters": 256, "bias_initializer": {"class_name": "Zeros", "config": {"dtype": "float32"}}, "use_bias": true, "activity_regularizer": null, "kernel_size": [1, 1]}, "name": "conv2d_98"}, {"class_name": "Add", "inbound_nodes": [[["p_re_lu_96", 0, 0, {}], ["conv2d_98", 0, 0, {}]]], "config": {"dtype": "float32", "trainable": true, "name": "add_48"}, "name": "add_48"}, {"class_name": "PReLU", "inbound_nodes": [[["add_48", 0, 0, {}]]], "config": {"name": "p_re_lu_98", "dtype": "float32", "alpha_constraint": null, "trainable": true, "alpha_regularizer": null, "alpha_initializer": {"class_name": "Zeros", "config": {"dtype": "float32"}}, "shared_axes": [1, 2]}, "name": "p_re_lu_98"}, {"class_name": "Conv2D", "inbound_nodes": [[["p_re_lu_98", 0, 0, {}]]], "config": {"kernel_initializer": {"class_name": "GlorotUniform", "config": {"dtype": "float32", "seed": null}}, "name": "conv2d_99", "kernel_constraint": null, "bias_regularizer": null, "bias_constraint": null, "dtype": "float32", "activation": "linear", "trainable": true, "data_format": "channels_last", "padding": "valid", "strides": [1, 1], "dilation_rate": [1, 1], "kernel_regularizer": null, "filters": 128, "bias_initializer": {"class_name": "Zeros", "config": {"dtype": "float32"}}, "use_bias": true, "activity_regularizer": null, "kernel_size": [1, 1]}, "name": "conv2d_99"}, {"class_name": "PReLU", "inbound_nodes": [[["conv2d_99", 0, 0, {}]]], "config": {"name": "p_re_lu_99", "dtype": "float32", "alpha_constraint": null, "trainable": true, "alpha_regularizer": null, "alpha_initializer": {"class_name": "Zeros", "config": {"dtype": "float32"}}, "shared_axes": [1, 2]}, "name": "p_re_lu_99"}, {"class_name": "DepthwiseConv2D", "inbound_nodes": [[["p_re_lu_99", 0, 0, {}]]], "config": {"depth_multiplier": 1, "name": "depthwise_conv2d_49", "bias_regularizer": null, "bias_constraint": null, "dtype": "float32", "activation": "linear", "trainable": true, "depthwise_constraint": null, "data_format": "channels_last", "padding": "same", "strides": [1, 1], "dilation_rate": [1, 1], "depthwise_initializer": {"class_name": "GlorotUniform", "config": {"dtype": "float32", "seed": null}}, "bias_initializer": {"class_name": "Zeros", "config": {"dtype": "float32"}}, "depthwise_regularizer": null, "use_bias": true, "activity_regularizer": null, "kernel_size": [3, 3]}, "name": "depthwise_conv2d_49"}, {"class_name": "Conv2D", "inbound_nodes": [[["depthwise_conv2d_49", 0, 0, {}]]], "config": {"kernel_initializer": {"class_name": "GlorotUniform", "config": {"dtype": "float32", "seed": null}}, "name": "conv2d_100", "kernel_constraint": null, "bias_regularizer": null, "bias_constraint": null, "dtype": "float32", "activation": "linear", "trainable": true, "data_format": "channels_last", "padding": "valid", "strides": [1, 1], "dilation_rate": [1, 1], "kernel_regularizer": null, "filters": 256, "bias_initializer": {"class_name": "Zeros", "config": {"dtype": "float32"}}, "use_bias": true, "activity_regularizer": null, "kernel_size": [1, 1]}, "name": "conv2d_100"}, {"class_name": "Add", "inbound_nodes": [[["p_re_lu_98", 0, 0, {}], ["conv2d_100", 0, 0, {}]]], "config": {"dtype": "float32", "trainable": true, "name": "add_49"}, "name": "add_49"}, {"class_name": "PReLU", "inbound_nodes": [[["add_49", 0, 0, {}]]], "config": {"name": "p_re_lu_100", "dtype": "float32", "alpha_constraint": null, "trainable": true, "alpha_regularizer": null, "alpha_initializer": {"class_name": "Zeros", "config": {"dtype": "float32"}}, "shared_axes": [1, 2]}, "name": "p_re_lu_100"}, {"class_name": "Conv2D", "inbound_nodes": [[["p_re_lu_100", 0, 0, {}]]], "config": {"kernel_initializer": {"class_name": "GlorotUniform", "config": {"dtype": "float32", "seed": null}}, "name": "conv2d_101", "kernel_constraint": null, "bias_regularizer": null, "bias_constraint": null, "dtype": "float32", "activation": "linear", "trainable": true, "data_format": "channels_last", "padding": "valid", "strides": [1, 1], "dilation_rate": [1, 1], "kernel_regularizer": null, "filters": 128, "bias_initializer": {"class_name": "Zeros", "config": {"dtype": "float32"}}, "use_bias": true, "activity_regularizer": null, "kernel_size": [1, 1]}, "name": "conv2d_101"}, {"class_name": "PReLU", "inbound_nodes": [[["conv2d_101", 0, 0, {}]]], "config": {"name": "p_re_lu_101", "dtype": "float32", "alpha_constraint": null, "trainable": true, "alpha_regularizer": null, "alpha_initializer": {"class_name": "Zeros", "config": {"dtype": "float32"}}, "shared_axes": [1, 2]}, "name": "p_re_lu_101"}, {"class_name": "DepthwiseConv2D", "inbound_nodes": [[["p_re_lu_101", 0, 0, {}]]], "config": {"depth_multiplier": 1, "name": "depthwise_conv2d_50", "bias_regularizer": null, "bias_constraint": null, "dtype": "float32", "activation": "linear", "trainable": true, "depthwise_constraint": null, "data_format": "channels_last", "padding": "same", "strides": [1, 1], "dilation_rate": [1, 1], "depthwise_initializer": {"class_name": "GlorotUniform", "config": {"dtype": "float32", "seed": null}}, "bias_initializer": {"class_name": "Zeros", "config": {"dtype": "float32"}}, "depthwise_regularizer": null, "use_bias": true, "activity_regularizer": null, "kernel_size": [3, 3]}, "name": "depthwise_conv2d_50"}, {"class_name": "Conv2D", "inbound_nodes": [[["depthwise_conv2d_50", 0, 0, {}]]], "config": {"kernel_initializer": {"class_name": "GlorotUniform", "config": {"dtype": "float32", "seed": null}}, "name": "conv2d_102", "kernel_constraint": null, "bias_regularizer": null, "bias_constraint": null, "dtype": "float32", "activation": "linear", "trainable": true, "data_format": "channels_last", "padding": "valid", "strides": [1, 1], "dilation_rate": [1, 1], "kernel_regularizer": null, "filters": 256, "bias_initializer": {"class_name": "Zeros", "config": {"dtype": "float32"}}, "use_bias": true, "activity_regularizer": null, "kernel_size": [1, 1]}, "name": "conv2d_102"}, {"class_name": "Add", "inbound_nodes": [[["p_re_lu_100", 0, 0, {}], ["conv2d_102", 0, 0, {}]]], "config": {"dtype": "float32", "trainable": true, "name": "add_50"}, "name": "add_50"}, {"class_name": "PReLU", "inbound_nodes": [[["add_50", 0, 0, {}]]], "config": {"name": "p_re_lu_102", "dtype": "float32", "alpha_constraint": null, "trainable": true, "alpha_regularizer": null, "alpha_initializer": {"class_name": "Zeros", "config": {"dtype": "float32"}}, "shared_axes": [1, 2]}, "name": "p_re_lu_102"}, {"class_name": "Conv2D", "inbound_nodes": [[["p_re_lu_102", 0, 0, {}]]], "config": {"kernel_initializer": {"class_name": "GlorotUniform", "config": {"dtype": "float32", "seed": null}}, "name": "conv2d_103", "kernel_constraint": null, "bias_regularizer": null, "bias_constraint": null, "dtype": "float32", "activation": "linear", "trainable": true, "data_format": "channels_last", "padding": "valid", "strides": [1, 1], "dilation_rate": [1, 1], "kernel_regularizer": null, "filters": 128, "bias_initializer": {"class_name": "Zeros", "config": {"dtype": "float32"}}, "use_bias": true, "activity_regularizer": null, "kernel_size": [1, 1]}, "name": "conv2d_103"}, {"class_name": "PReLU", "inbound_nodes": [[["conv2d_103", 0, 0, {}]]], "config": {"name": "p_re_lu_103", "dtype": "float32", "alpha_constraint": null, "trainable": true, "alpha_regularizer": null, "alpha_initializer": {"class_name": "Zeros", "config": {"dtype": "float32"}}, "shared_axes": [1, 2]}, "name": "p_re_lu_103"}, {"class_name": "DepthwiseConv2D", "inbound_nodes": [[["p_re_lu_103", 0, 0, {}]]], "config": {"depth_multiplier": 1, "name": "depthwise_conv2d_51", "bias_regularizer": null, "bias_constraint": null, "dtype": "float32", "activation": "linear", "trainable": true, "depthwise_constraint": null, "data_format": "channels_last", "padding": "same", "strides": [1, 1], "dilation_rate": [1, 1], "depthwise_initializer": {"class_name": "GlorotUniform", "config": {"dtype": "float32", "seed": null}}, "bias_initializer": {"class_name": "Zeros", "config": {"dtype": "float32"}}, "depthwise_regularizer": null, "use_bias": true, "activity_regularizer": null, "kernel_size": [3, 3]}, "name": "depthwise_conv2d_51"}, {"class_name": "Conv2D", "inbound_nodes": [[["depthwise_conv2d_51", 0, 0, {}]]], "config": {"kernel_initializer": {"class_name": "GlorotUniform", "config": {"dtype": "float32", "seed": null}}, "name": "conv2d_104", "kernel_constraint": null, "bias_regularizer": null, "bias_constraint": null, "dtype": "float32", "activation": "linear", "trainable": true, "data_format": "channels_last", "padding": "valid", "strides": [1, 1], "dilation_rate": [1, 1], "kernel_regularizer": null, "filters": 256, "bias_initializer": {"class_name": "Zeros", "config": {"dtype": "float32"}}, "use_bias": true, "activity_regularizer": null, "kernel_size": [1, 1]}, "name": "conv2d_104"}, {"class_name": "Add", "inbound_nodes": [[["p_re_lu_102", 0, 0, {}], ["conv2d_104", 0, 0, {}]]], "config": {"dtype": "float32", "trainable": true, "name": "add_51"}, "name": "add_51"}, {"class_name": "PReLU", "inbound_nodes": [[["add_51", 0, 0, {}]]], "config": {"name": "p_re_lu_104", "dtype": "float32", "alpha_constraint": null, "trainable": true, "alpha_regularizer": null, "alpha_initializer": {"class_name": "Zeros", "config": {"dtype": "float32"}}, "shared_axes": [1, 2]}, "name": "p_re_lu_104"}, {"class_name": "Conv2D", "inbound_nodes": [[["p_re_lu_104", 0, 0, {}]]], "config": {"kernel_initializer": {"class_name": "GlorotUniform", "config": {"dtype": "float32", "seed": null}}, "name": "conv2d_105", "kernel_constraint": null, "bias_regularizer": null, "bias_constraint": null, "dtype": "float32", "activation": "linear", "trainable": true, "data_format": "channels_last", "padding": "valid", "strides": [1, 1], "dilation_rate": [1, 1], "kernel_regularizer": null, "filters": 128, "bias_initializer": {"class_name": "Zeros", "config": {"dtype": "float32"}}, "use_bias": true, "activity_regularizer": null, "kernel_size": [1, 1]}, "name": "conv2d_105"}, {"class_name": "PReLU", "inbound_nodes": [[["conv2d_105", 0, 0, {}]]], "config": {"name": "p_re_lu_105", "dtype": "float32", "alpha_constraint": null, "trainable": true, "alpha_regularizer": null, "alpha_initializer": {"class_name": "Zeros", "config": {"dtype": "float32"}}, "shared_axes": [1, 2]}, "name": "p_re_lu_105"}, {"class_name": "DepthwiseConv2D", "inbound_nodes": [[["p_re_lu_105", 0, 0, {}]]], "config": {"depth_multiplier": 1, "name": "depthwise_conv2d_52", "bias_regularizer": null, "bias_constraint": null, "dtype": "float32", "activation": "linear", "trainable": true, "depthwise_constraint": null, "data_format": "channels_last", "padding": "same", "strides": [1, 1], "dilation_rate": [1, 1], "depthwise_initializer": {"class_name": "GlorotUniform", "config": {"dtype": "float32", "seed": null}}, "bias_initializer": {"class_name": "Zeros", "config": {"dtype": "float32"}}, "depthwise_regularizer": null, "use_bias": true, "activity_regularizer": null, "kernel_size": [3, 3]}, "name": "depthwise_conv2d_52"}, {"class_name": "Conv2D", "inbound_nodes": [[["depthwise_conv2d_52", 0, 0, {}]]], "config": {"kernel_initializer": {"class_name": "GlorotUniform", "config": {"dtype": "float32", "seed": null}}, "name": "conv2d_106", "kernel_constraint": null, "bias_regularizer": null, "bias_constraint": null, "dtype": "float32", "activation": "linear", "trainable": true, "data_format": "channels_last", "padding": "valid", "strides": [1, 1], "dilation_rate": [1, 1], "kernel_regularizer": null, "filters": 256, "bias_initializer": {"class_name": "Zeros", "config": {"dtype": "float32"}}, "use_bias": true, "activity_regularizer": null, "kernel_size": [1, 1]}, "name": "conv2d_106"}, {"class_name": "Add", "inbound_nodes": [[["p_re_lu_104", 0, 0, {}], ["conv2d_106", 0, 0, {}]]], "config": {"dtype": "float32", "trainable": true, "name": "add_52"}, "name": "add_52"}, {"class_name": "PReLU", "inbound_nodes": [[["add_52", 0, 0, {}]]], "config": {"name": "p_re_lu_106", "dtype": "float32", "alpha_constraint": null, "trainable": true, "alpha_regularizer": null, "alpha_initializer": {"class_name": "Zeros", "config": {"dtype": "float32"}}, "shared_axes": [1, 2]}, "name": "p_re_lu_106"}, {"class_name": "Conv2D", "inbound_nodes": [[["p_re_lu_106", 0, 0, {}]]], "config": {"kernel_initializer": {"class_name": "GlorotUniform", "config": {"dtype": "float32", "seed": null}}, "name": "conv2d_107", "kernel_constraint": null, "bias_regularizer": null, "bias_constraint": null, "dtype": "float32", "activation": "linear", "trainable": true, "data_format": "channels_last", "padding": "valid", "strides": [2, 2], "dilation_rate": [1, 1], "kernel_regularizer": null, "filters": 128, "bias_initializer": {"class_name": "Zeros", "config": {"dtype": "float32"}}, "use_bias": true, "activity_regularizer": null, "kernel_size": [2, 2]}, "name": "conv2d_107"}, {"class_name": "PReLU", "inbound_nodes": [[["conv2d_107", 0, 0, {}]]], "config": {"name": "p_re_lu_107", "dtype": "float32", "alpha_constraint": null, "trainable": true, "alpha_regularizer": null, "alpha_initializer": {"class_name": "Zeros", "config": {"dtype": "float32"}}, "shared_axes": [1, 2]}, "name": "p_re_lu_107"}, {"class_name": "DepthwiseConv2D", "inbound_nodes": [[["p_re_lu_107", 0, 0, {}]]], "config": {"depth_multiplier": 1, "name": "depthwise_conv2d_53", "bias_regularizer": null, "bias_constraint": null, "dtype": "float32", "activation": "linear", "trainable": true, "depthwise_constraint": null, "data_format": "channels_last", "padding": "same", "strides": [1, 1], "dilation_rate": [1, 1], "depthwise_initializer": {"class_name": "GlorotUniform", "config": {"dtype": "float32", "seed": null}}, "bias_initializer": {"class_name": "Zeros", "config": {"dtype": "float32"}}, "depthwise_regularizer": null, "use_bias": true, "activity_regularizer": null, "kernel_size": [3, 3]}, "name": "depthwise_conv2d_53"}, {"class_name": "MaxPooling2D", "inbound_nodes": [[["p_re_lu_106", 0, 0, {}]]], "config": {"name": "max_pooling2d_5", "dtype": "float32", "trainable": true, "data_format": "channels_last", "pool_size": [2, 2], "padding": "valid", "strides": [2, 2]}, "name": "max_pooling2d_5"}, {"class_name": "Conv2D", "inbound_nodes": [[["depthwise_conv2d_53", 0, 0, {}]]], "config": {"kernel_initializer": {"class_name": "GlorotUniform", "config": {"dtype": "float32", "seed": null}}, "name": "conv2d_108", "kernel_constraint": null, "bias_regularizer": null, "bias_constraint": null, "dtype": "float32", "activation": "linear", "trainable": true, "data_format": "channels_last", "padding": "valid", "strides": [1, 1], "dilation_rate": [1, 1], "kernel_regularizer": null, "filters": 256, "bias_initializer": {"class_name": "Zeros", "config": {"dtype": "float32"}}, "use_bias": true, "activity_regularizer": null, "kernel_size": [1, 1]}, "name": "conv2d_108"}, {"class_name": "Add", "inbound_nodes": [[["max_pooling2d_5", 0, 0, {}], ["conv2d_108", 0, 0, {}]]], "config": {"dtype": "float32", "trainable": true, "name": "add_53"}, "name": "add_53"}, {"class_name": "PReLU", "inbound_nodes": [[["add_53", 0, 0, {}]]], "config": {"name": "p_re_lu_108", "dtype": "float32", "alpha_constraint": null, "trainable": true, "alpha_regularizer": null, "alpha_initializer": {"class_name": "Zeros", "config": {"dtype": "float32"}}, "shared_axes": [1, 2]}, "name": "p_re_lu_108"}, {"class_name": "Conv2D", "inbound_nodes": [[["p_re_lu_108", 0, 0, {}]]], "config": {"kernel_initializer": {"class_name": "GlorotUniform", "config": {"dtype": "float32", "seed": null}}, "name": "conv2d_109", "kernel_constraint": null, "bias_regularizer": null, "bias_constraint": null, "dtype": "float32", "activation": "linear", "trainable": true, "data_format": "channels_last", "padding": "valid", "strides": [1, 1], "dilation_rate": [1, 1], "kernel_regularizer": null, "filters": 128, "bias_initializer": {"class_name": "Zeros", "config": {"dtype": "float32"}}, "use_bias": true, "activity_regularizer": null, "kernel_size": [1, 1]}, "name": "conv2d_109"}, {"class_name": "PReLU", "inbound_nodes": [[["conv2d_109", 0, 0, {}]]], "config": {"name": "p_re_lu_109", "dtype": "float32", "alpha_constraint": null, "trainable": true, "alpha_regularizer": null, "alpha_initializer": {"class_name": "Zeros", "config": {"dtype": "float32"}}, "shared_axes": [1, 2]}, "name": "p_re_lu_109"}, {"class_name": "DepthwiseConv2D", "inbound_nodes": [[["p_re_lu_109", 0, 0, {}]]], "config": {"depth_multiplier": 1, "name": "depthwise_conv2d_54", "bias_regularizer": null, "bias_constraint": null, "dtype": "float32", "activation": "linear", "trainable": true, "depthwise_constraint": null, "data_format": "channels_last", "padding": "same", "strides": [1, 1], "dilation_rate": [1, 1], "depthwise_initializer": {"class_name": "GlorotUniform", "config": {"dtype": "float32", "seed": null}}, "bias_initializer": {"class_name": "Zeros", "config": {"dtype": "float32"}}, "depthwise_regularizer": null, "use_bias": true, "activity_regularizer": null, "kernel_size": [3, 3]}, "name": "depthwise_conv2d_54"}, {"class_name": "Conv2D", "inbound_nodes": [[["depthwise_conv2d_54", 0, 0, {}]]], "config": {"kernel_initializer": {"class_name": "GlorotUniform", "config": {"dtype": "float32", "seed": null}}, "name": "conv2d_110", "kernel_constraint": null, "bias_regularizer": null, "bias_constraint": null, "dtype": "float32", "activation": "linear", "trainable": true, "data_format": "channels_last", "padding": "valid", "strides": [1, 1], "dilation_rate": [1, 1], "kernel_regularizer": null, "filters": 256, "bias_initializer": {"class_name": "Zeros", "config": {"dtype": "float32"}}, "use_bias": true, "activity_regularizer": null, "kernel_size": [1, 1]}, "name": "conv2d_110"}, {"class_name": "Add", "inbound_nodes": [[["p_re_lu_108", 0, 0, {}], ["conv2d_110", 0, 0, {}]]], "config": {"dtype": "float32", "trainable": true, "name": "add_54"}, "name": "add_54"}, {"class_name": "PReLU", "inbound_nodes": [[["add_54", 0, 0, {}]]], "config": {"name": "p_re_lu_110", "dtype": "float32", "alpha_constraint": null, "trainable": true, "alpha_regularizer": null, "alpha_initializer": {"class_name": "Zeros", "config": {"dtype": "float32"}}, "shared_axes": [1, 2]}, "name": "p_re_lu_110"}, {"class_name": "Conv2D", "inbound_nodes": [[["p_re_lu_110", 0, 0, {}]]], "config": {"kernel_initializer": {"class_name": "GlorotUniform", "config": {"dtype": "float32", "seed": null}}, "name": "conv2d_111", "kernel_constraint": null, "bias_regularizer": null, "bias_constraint": null, "dtype": "float32", "activation": "linear", "trainable": true, "data_format": "channels_last", "padding": "valid", "strides": [1, 1], "dilation_rate": [1, 1], "kernel_regularizer": null, "filters": 128, "bias_initializer": {"class_name": "Zeros", "config": {"dtype": "float32"}}, "use_bias": true, "activity_regularizer": null, "kernel_size": [1, 1]}, "name": "conv2d_111"}, {"class_name": "PReLU", "inbound_nodes": [[["conv2d_111", 0, 0, {}]]], "config": {"name": "p_re_lu_111", "dtype": "float32", "alpha_constraint": null, "trainable": true, "alpha_regularizer": null, "alpha_initializer": {"class_name": "Zeros", "config": {"dtype": "float32"}}, "shared_axes": [1, 2]}, "name": "p_re_lu_111"}, {"class_name": "DepthwiseConv2D", "inbound_nodes": [[["p_re_lu_111", 0, 0, {}]]], "config": {"depth_multiplier": 1, "name": "depthwise_conv2d_55", "bias_regularizer": null, "bias_constraint": null, "dtype": "float32", "activation": "linear", "trainable": true, "depthwise_constraint": null, "data_format": "channels_last", "padding": "same", "strides": [1, 1], "dilation_rate": [1, 1], "depthwise_initializer": {"class_name": "GlorotUniform", "config": {"dtype": "float32", "seed": null}}, "bias_initializer": {"class_name": "Zeros", "config": {"dtype": "float32"}}, "depthwise_regularizer": null, "use_bias": true, "activity_regularizer": null, "kernel_size": [3, 3]}, "name": "depthwise_conv2d_55"}, {"class_name": "Conv2D", "inbound_nodes": [[["depthwise_conv2d_55", 0, 0, {}]]], "config": {"kernel_initializer": {"class_name": "GlorotUniform", "config": {"dtype": "float32", "seed": null}}, "name": "conv2d_112", "kernel_constraint": null, "bias_regularizer": null, "bias_constraint": null, "dtype": "float32", "activation": "linear", "trainable": true, "data_format": "channels_last", "padding": "valid", "strides": [1, 1], "dilation_rate": [1, 1], "kernel_regularizer": null, "filters": 256, "bias_initializer": {"class_name": "Zeros", "config": {"dtype": "float32"}}, "use_bias": true, "activity_regularizer": null, "kernel_size": [1, 1]}, "name": "conv2d_112"}, {"class_name": "Add", "inbound_nodes": [[["p_re_lu_110", 0, 0, {}], ["conv2d_112", 0, 0, {}]]], "config": {"dtype": "float32", "trainable": true, "name": "add_55"}, "name": "add_55"}, {"class_name": "PReLU", "inbound_nodes": [[["add_55", 0, 0, {}]]], "config": {"name": "p_re_lu_112", "dtype": "float32", "alpha_constraint": null, "trainable": true, "alpha_regularizer": null, "alpha_initializer": {"class_name": "Zeros", "config": {"dtype": "float32"}}, "shared_axes": [1, 2]}, "name": "p_re_lu_112"}, {"class_name": "Conv2D", "inbound_nodes": [[["p_re_lu_112", 0, 0, {}]]], "config": {"kernel_initializer": {"class_name": "GlorotUniform", "config": {"dtype": "float32", "seed": null}}, "name": "conv2d_113", "kernel_constraint": null, "bias_regularizer": null, "bias_constraint": null, "dtype": "float32", "activation": "linear", "trainable": true, "data_format": "channels_last", "padding": "valid", "strides": [1, 1], "dilation_rate": [1, 1], "kernel_regularizer": null, "filters": 128, "bias_initializer": {"class_name": "Zeros", "config": {"dtype": "float32"}}, "use_bias": true, "activity_regularizer": null, "kernel_size": [1, 1]}, "name": "conv2d_113"}, {"class_name": "PReLU", "inbound_nodes": [[["conv2d_113", 0, 0, {}]]], "config": {"name": "p_re_lu_113", "dtype": "float32", "alpha_constraint": null, "trainable": true, "alpha_regularizer": null, "alpha_initializer": {"class_name": "Zeros", "config": {"dtype": "float32"}}, "shared_axes": [1, 2]}, "name": "p_re_lu_113"}, {"class_name": "DepthwiseConv2D", "inbound_nodes": [[["p_re_lu_113", 0, 0, {}]]], "config": {"depth_multiplier": 1, "name": "depthwise_conv2d_56", "bias_regularizer": null, "bias_constraint": null, "dtype": "float32", "activation": "linear", "trainable": true, "depthwise_constraint": null, "data_format": "channels_last", "padding": "same", "strides": [1, 1], "dilation_rate": [1, 1], "depthwise_initializer": {"class_name": "GlorotUniform", "config": {"dtype": "float32", "seed": null}}, "bias_initializer": {"class_name": "Zeros", "config": {"dtype": "float32"}}, "depthwise_regularizer": null, "use_bias": true, "activity_regularizer": null, "kernel_size": [3, 3]}, "name": "depthwise_conv2d_56"}, {"class_name": "Conv2D", "inbound_nodes": [[["depthwise_conv2d_56", 0, 0, {}]]], "config": {"kernel_initializer": {"class_name": "GlorotUniform", "config": {"dtype": "float32", "seed": null}}, "name": "conv2d_114", "kernel_constraint": null, "bias_regularizer": null, "bias_constraint": null, "dtype": "float32", "activation": "linear", "trainable": true, "data_format": "channels_last", "padding": "valid", "strides": [1, 1], "dilation_rate": [1, 1], "kernel_regularizer": null, "filters": 256, "bias_initializer": {"class_name": "Zeros", "config": {"dtype": "float32"}}, "use_bias": true, "activity_regularizer": null, "kernel_size": [1, 1]}, "name": "conv2d_114"}, {"class_name": "Add", "inbound_nodes": [[["p_re_lu_112", 0, 0, {}], ["conv2d_114", 0, 0, {}]]], "config": {"dtype": "float32", "trainable": true, "name": "add_56"}, "name": "add_56"}, {"class_name": "PReLU", "inbound_nodes": [[["add_56", 0, 0, {}]]], "config": {"name": "p_re_lu_114", "dtype": "float32", "alpha_constraint": null, "trainable": true, "alpha_regularizer": null, "alpha_initializer": {"class_name": "Zeros", "config": {"dtype": "float32"}}, "shared_axes": [1, 2]}, "name": "p_re_lu_114"}, {"class_name": "Conv2D", "inbound_nodes": [[["p_re_lu_114", 0, 0, {}]]], "config": {"kernel_initializer": {"class_name": "GlorotUniform", "config": {"dtype": "float32", "seed": null}}, "name": "conv2d_115", "kernel_constraint": null, "bias_regularizer": null, "bias_constraint": null, "dtype": "float32", "activation": "linear", "trainable": true, "data_format": "channels_last", "padding": "valid", "strides": [1, 1], "dilation_rate": [1, 1], "kernel_regularizer": null, "filters": 128, "bias_initializer": {"class_name": "Zeros", "config": {"dtype": "float32"}}, "use_bias": true, "activity_regularizer": null, "kernel_size": [1, 1]}, "name": "conv2d_115"}, {"class_name": "PReLU", "inbound_nodes": [[["conv2d_115", 0, 0, {}]]], "config": {"name": "p_re_lu_115", "dtype": "float32", "alpha_constraint": null, "trainable": true, "alpha_regularizer": null, "alpha_initializer": {"class_name": "Zeros", "config": {"dtype": "float32"}}, "shared_axes": [1, 2]}, "name": "p_re_lu_115"}, {"class_name": "DepthwiseConv2D", "inbound_nodes": [[["p_re_lu_115", 0, 0, {}]]], "config": {"depth_multiplier": 1, "name": "depthwise_conv2d_57", "bias_regularizer": null, "bias_constraint": null, "dtype": "float32", "activation": "linear", "trainable": true, "depthwise_constraint": null, "data_format": "channels_last", "padding": "same", "strides": [1, 1], "dilation_rate": [1, 1], "depthwise_initializer": {"class_name": "GlorotUniform", "config": {"dtype": "float32", "seed": null}}, "bias_initializer": {"class_name": "Zeros", "config": {"dtype": "float32"}}, "depthwise_regularizer": null, "use_bias": true, "activity_regularizer": null, "kernel_size": [3, 3]}, "name": "depthwise_conv2d_57"}, {"class_name": "Conv2D", "inbound_nodes": [[["depthwise_conv2d_57", 0, 0, {}]]], "config": {"kernel_initializer": {"class_name": "GlorotUniform", "config": {"dtype": "float32", "seed": null}}, "name": "conv2d_116", "kernel_constraint": null, "bias_regularizer": null, "bias_constraint": null, "dtype": "float32", "activation": "linear", "trainable": true, "data_format": "channels_last", "padding": "valid", "strides": [1, 1], "dilation_rate": [1, 1], "kernel_regularizer": null, "filters": 256, "bias_initializer": {"class_name": "Zeros", "config": {"dtype": "float32"}}, "use_bias": true, "activity_regularizer": null, "kernel_size": [1, 1]}, "name": "conv2d_116"}, {"class_name": "Add", "inbound_nodes": [[["p_re_lu_114", 0, 0, {}], ["conv2d_116", 0, 0, {}]]], "config": {"dtype": "float32", "trainable": true, "name": "add_57"}, "name": "add_57"}, {"class_name": "PReLU", "inbound_nodes": [[["add_57", 0, 0, {}]]], "config": {"name": "p_re_lu_116", "dtype": "float32", "alpha_constraint": null, "trainable": true, "alpha_regularizer": null, "alpha_initializer": {"class_name": "Zeros", "config": {"dtype": "float32"}}, "shared_axes": [1, 2]}, "name": "p_re_lu_116"}, {"class_name": "Conv2D", "inbound_nodes": [[["p_re_lu_116", 0, 0, {}]]], "config": {"kernel_initializer": {"class_name": "GlorotUniform", "config": {"dtype": "float32", "seed": null}}, "name": "conv2d_117", "kernel_constraint": null, "bias_regularizer": null, "bias_constraint": null, "dtype": "float32", "activation": "linear", "trainable": true, "data_format": "channels_last", "padding": "valid", "strides": [1, 1], "dilation_rate": [1, 1], "kernel_regularizer": null, "filters": 128, "bias_initializer": {"class_name": "Zeros", "config": {"dtype": "float32"}}, "use_bias": true, "activity_regularizer": null, "kernel_size": [1, 1]}, "name": "conv2d_117"}, {"class_name": "PReLU", "inbound_nodes": [[["conv2d_117", 0, 0, {}]]], "config": {"name": "p_re_lu_117", "dtype": "float32", "alpha_constraint": null, "trainable": true, "alpha_regularizer": null, "alpha_initializer": {"class_name": "Zeros", "config": {"dtype": "float32"}}, "shared_axes": [1, 2]}, "name": "p_re_lu_117"}, {"class_name": "DepthwiseConv2D", "inbound_nodes": [[["p_re_lu_117", 0, 0, {}]]], "config": {"depth_multiplier": 1, "name": "depthwise_conv2d_58", "bias_regularizer": null, "bias_constraint": null, "dtype": "float32", "activation": "linear", "trainable": true, "depthwise_constraint": null, "data_format": "channels_last", "padding": "same", "strides": [1, 1], "dilation_rate": [1, 1], "depthwise_initializer": {"class_name": "GlorotUniform", "config": {"dtype": "float32", "seed": null}}, "bias_initializer": {"class_name": "Zeros", "config": {"dtype": "float32"}}, "depthwise_regularizer": null, "use_bias": true, "activity_regularizer": null, "kernel_size": [3, 3]}, "name": "depthwise_conv2d_58"}, {"class_name": "Conv2D", "inbound_nodes": [[["depthwise_conv2d_58", 0, 0, {}]]], "config": {"kernel_initializer": {"class_name": "GlorotUniform", "config": {"dtype": "float32", "seed": null}}, "name": "conv2d_118", "kernel_constraint": null, "bias_regularizer": null, "bias_constraint": null, "dtype": "float32", "activation": "linear", "trainable": true, "data_format": "channels_last", "padding": "valid", "strides": [1, 1], "dilation_rate": [1, 1], "kernel_regularizer": null, "filters": 256, "bias_initializer": {"class_name": "Zeros", "config": {"dtype": "float32"}}, "use_bias": true, "activity_regularizer": null, "kernel_size": [1, 1]}, "name": "conv2d_118"}, {"class_name": "Add", "inbound_nodes": [[["p_re_lu_116", 0, 0, {}], ["conv2d_118", 0, 0, {}]]], "config": {"dtype": "float32", "trainable": true, "name": "add_58"}, "name": "add_58"}, {"class_name": "PReLU", "inbound_nodes": [[["add_58", 0, 0, {}]]], "config": {"name": "p_re_lu_118", "dtype": "float32", "alpha_constraint": null, "trainable": true, "alpha_regularizer": null, "alpha_initializer": {"class_name": "Zeros", "config": {"dtype": "float32"}}, "shared_axes": [1, 2]}, "name": "p_re_lu_118"}, {"class_name": "Conv2D", "inbound_nodes": [[["p_re_lu_118", 0, 0, {}]]], "config": {"kernel_initializer": {"class_name": "GlorotUniform", "config": {"dtype": "float32", "seed": null}}, "name": "conv2d_119", "kernel_constraint": null, "bias_regularizer": null, "bias_constraint": null, "dtype": "float32", "activation": "linear", "trainable": true, "data_format": "channels_last", "padding": "valid", "strides": [1, 1], "dilation_rate": [1, 1], "kernel_regularizer": null, "filters": 128, "bias_initializer": {"class_name": "Zeros", "config": {"dtype": "float32"}}, "use_bias": true, "activity_regularizer": null, "kernel_size": [1, 1]}, "name": "conv2d_119"}, {"class_name": "PReLU", "inbound_nodes": [[["conv2d_119", 0, 0, {}]]], "config": {"name": "p_re_lu_119", "dtype": "float32", "alpha_constraint": null, "trainable": true, "alpha_regularizer": null, "alpha_initializer": {"class_name": "Zeros", "config": {"dtype": "float32"}}, "shared_axes": [1, 2]}, "name": "p_re_lu_119"}, {"class_name": "DepthwiseConv2D", "inbound_nodes": [[["p_re_lu_119", 0, 0, {}]]], "config": {"depth_multiplier": 1, "name": "depthwise_conv2d_59", "bias_regularizer": null, "bias_constraint": null, "dtype": "float32", "activation": "linear", "trainable": true, "depthwise_constraint": null, "data_format": "channels_last", "padding": "same", "strides": [1, 1], "dilation_rate": [1, 1], "depthwise_initializer": {"class_name": "GlorotUniform", "config": {"dtype": "float32", "seed": null}}, "bias_initializer": {"class_name": "Zeros", "config": {"dtype": "float32"}}, "depthwise_regularizer": null, "use_bias": true, "activity_regularizer": null, "kernel_size": [3, 3]}, "name": "depthwise_conv2d_59"}, {"class_name": "Conv2D", "inbound_nodes": [[["depthwise_conv2d_59", 0, 0, {}]]], "config": {"kernel_initializer": {"class_name": "GlorotUniform", "config": {"dtype": "float32", "seed": null}}, "name": "conv2d_120", "kernel_constraint": null, "bias_regularizer": null, "bias_constraint": null, "dtype": "float32", "activation": "linear", "trainable": true, "data_format": "channels_last", "padding": "valid", "strides": [1, 1], "dilation_rate": [1, 1], "kernel_regularizer": null, "filters": 256, "bias_initializer": {"class_name": "Zeros", "config": {"dtype": "float32"}}, "use_bias": true, "activity_regularizer": null, "kernel_size": [1, 1]}, "name": "conv2d_120"}, {"class_name": "Add", "inbound_nodes": [[["p_re_lu_118", 0, 0, {}], ["conv2d_120", 0, 0, {}]]], "config": {"dtype": "float32", "trainable": true, "name": "add_59"}, "name": "add_59"}, {"class_name": "PReLU", "inbound_nodes": [[["add_59", 0, 0, {}]]], "config": {"name": "p_re_lu_120", "dtype": "float32", "alpha_constraint": null, "trainable": true, "alpha_regularizer": null, "alpha_initializer": {"class_name": "Zeros", "config": {"dtype": "float32"}}, "shared_axes": [1, 2]}, "name": "p_re_lu_120"}, {"class_name": "Conv2D", "inbound_nodes": [[["p_re_lu_120", 0, 0, {}]]], "config": {"kernel_initializer": {"class_name": "GlorotUniform", "config": {"dtype": "float32", "seed": null}}, "name": "conv2d_121", "kernel_constraint": null, "bias_regularizer": null, "bias_constraint": null, "dtype": "float32", "activation": "linear", "trainable": true, "data_format": "channels_last", "padding": "valid", "strides": [1, 1], "dilation_rate": [1, 1], "kernel_regularizer": null, "filters": 128, "bias_initializer": {"class_name": "Zeros", "config": {"dtype": "float32"}}, "use_bias": true, "activity_regularizer": null, "kernel_size": [1, 1]}, "name": "conv2d_121"}, {"class_name": "PReLU", "inbound_nodes": [[["conv2d_121", 0, 0, {}]]], "config": {"name": "p_re_lu_121", "dtype": "float32", "alpha_constraint": null, "trainable": true, "alpha_regularizer": null, "alpha_initializer": {"class_name": "Zeros", "config": {"dtype": "float32"}}, "shared_axes": [1, 2]}, "name": "p_re_lu_121"}, {"class_name": "DepthwiseConv2D", "inbound_nodes": [[["p_re_lu_121", 0, 0, {}]]], "config": {"depth_multiplier": 1, "name": "depthwise_conv2d_60", "bias_regularizer": null, "bias_constraint": null, "dtype": "float32", "activation": "linear", "trainable": true, "depthwise_constraint": null, "data_format": "channels_last", "padding": "same", "strides": [1, 1], "dilation_rate": [1, 1], "depthwise_initializer": {"class_name": "GlorotUniform", "config": {"dtype": "float32", "seed": null}}, "bias_initializer": {"class_name": "Zeros", "config": {"dtype": "float32"}}, "depthwise_regularizer": null, "use_bias": true, "activity_regularizer": null, "kernel_size": [3, 3]}, "name": "depthwise_conv2d_60"}, {"class_name": "Conv2D", "inbound_nodes": [[["depthwise_conv2d_60", 0, 0, {}]]], "config": {"kernel_initializer": {"class_name": "GlorotUniform", "config": {"dtype": "float32", "seed": null}}, "name": "conv2d_122", "kernel_constraint": null, "bias_regularizer": null, "bias_constraint": null, "dtype": "float32", "activation": "linear", "trainable": true, "data_format": "channels_last", "padding": "valid", "strides": [1, 1], "dilation_rate": [1, 1], "kernel_regularizer": null, "filters": 256, "bias_initializer": {"class_name": "Zeros", "config": {"dtype": "float32"}}, "use_bias": true, "activity_regularizer": null, "kernel_size": [1, 1]}, "name": "conv2d_122"}, {"class_name": "Add", "inbound_nodes": [[["p_re_lu_120", 0, 0, {}], ["conv2d_122", 0, 0, {}]]], "config": {"dtype": "float32", "trainable": true, "name": "add_60"}, "name": "add_60"}, {"class_name": "PReLU", "inbound_nodes": [[["add_60", 0, 0, {}]]], "config": {"name": "p_re_lu_122", "dtype": "float32", "alpha_constraint": null, "trainable": true, "alpha_regularizer": null, "alpha_initializer": {"class_name": "Zeros", "config": {"dtype": "float32"}}, "shared_axes": [1, 2]}, "name": "p_re_lu_122"}, {"class_name": "Conv2D", "inbound_nodes": [[["p_re_lu_122", 0, 0, {}]]], "config": {"kernel_initializer": {"class_name": "GlorotUniform", "config": {"dtype": "float32", "seed": null}}, "name": "conv2d_123", "kernel_constraint": null, "bias_regularizer": null, "bias_constraint": null, "dtype": "float32", "activation": "linear", "trainable": true, "data_format": "channels_last", "padding": "valid", "strides": [1, 1], "dilation_rate": [1, 1], "kernel_regularizer": null, "filters": 128, "bias_initializer": {"class_name": "Zeros", "config": {"dtype": "float32"}}, "use_bias": true, "activity_regularizer": null, "kernel_size": [1, 1]}, "name": "conv2d_123"}, {"class_name": "PReLU", "inbound_nodes": [[["conv2d_123", 0, 0, {}]]], "config": {"name": "p_re_lu_123", "dtype": "float32", "alpha_constraint": null, "trainable": true, "alpha_regularizer": null, "alpha_initializer": {"class_name": "Zeros", "config": {"dtype": "float32"}}, "shared_axes": [1, 2]}, "name": "p_re_lu_123"}, {"class_name": "DepthwiseConv2D", "inbound_nodes": [[["p_re_lu_123", 0, 0, {}]]], "config": {"depth_multiplier": 1, "name": "depthwise_conv2d_61", "bias_regularizer": null, "bias_constraint": null, "dtype": "float32", "activation": "linear", "trainable": true, "depthwise_constraint": null, "data_format": "channels_last", "padding": "same", "strides": [1, 1], "dilation_rate": [1, 1], "depthwise_initializer": {"class_name": "GlorotUniform", "config": {"dtype": "float32", "seed": null}}, "bias_initializer": {"class_name": "Zeros", "config": {"dtype": "float32"}}, "depthwise_regularizer": null, "use_bias": true, "activity_regularizer": null, "kernel_size": [3, 3]}, "name": "depthwise_conv2d_61"}, {"class_name": "Conv2D", "inbound_nodes": [[["depthwise_conv2d_61", 0, 0, {}]]], "config": {"kernel_initializer": {"class_name": "GlorotUniform", "config": {"dtype": "float32", "seed": null}}, "name": "conv2d_124", "kernel_constraint": null, "bias_regularizer": null, "bias_constraint": null, "dtype": "float32", "activation": "linear", "trainable": true, "data_format": "channels_last", "padding": "valid", "strides": [1, 1], "dilation_rate": [1, 1], "kernel_regularizer": null, "filters": 256, "bias_initializer": {"class_name": "Zeros", "config": {"dtype": "float32"}}, "use_bias": true, "activity_regularizer": null, "kernel_size": [1, 1]}, "name": "conv2d_124"}, {"class_name": "Add", "inbound_nodes": [[["p_re_lu_122", 0, 0, {}], ["conv2d_124", 0, 0, {}]]], "config": {"dtype": "float32", "trainable": true, "name": "add_61"}, "name": "add_61"}, {"class_name": "PReLU", "inbound_nodes": [[["add_61", 0, 0, {}]]], "config": {"name": "p_re_lu_124", "dtype": "float32", "alpha_constraint": null, "trainable": true, "alpha_regularizer": null, "alpha_initializer": {"class_name": "Zeros", "config": {"dtype": "float32"}}, "shared_axes": [1, 2]}, "name": "p_re_lu_124"}, {"class_name": "Conv2D", "inbound_nodes": [[["p_re_lu_124", 0, 0, {}]]], "config": {"kernel_initializer": {"class_name": "GlorotUniform", "config": {"dtype": "float32", "seed": null}}, "name": "conv2d_125", "kernel_constraint": null, "bias_regularizer": null, "bias_constraint": null, "dtype": "float32", "activation": "linear", "trainable": true, "data_format": "channels_last", "padding": "valid", "strides": [1, 1], "dilation_rate": [1, 1], "kernel_regularizer": null, "filters": 1, "bias_initializer": {"class_name": "Zeros", "config": {"dtype": "float32"}}, "use_bias": true, "activity_regularizer": null, "kernel_size": [2, 2]}, "name": "conv2d_125"}, {"class_name": "Conv2D", "inbound_nodes": [[["p_re_lu_124", 0, 0, {}]]], "config": {"kernel_initializer": {"class_name": "GlorotUniform", "config": {"dtype": "float32", "seed": null}}, "name": "conv2d_126", "kernel_constraint": null, "bias_regularizer": null, "bias_constraint": null, "dtype": "float32", "activation": "linear", "trainable": true, "data_format": "channels_last", "padding": "valid", "strides": [1, 1], "dilation_rate": [1, 1], "kernel_regularizer": null, "filters": 42, "bias_initializer": {"class_name": "Zeros", "config": {"dtype": "float32"}}, "use_bias": true, "activity_regularizer": null, "kernel_size": [2, 2]}, "name": "conv2d_126"}, {"class_name": "Activation", "inbound_nodes": [[["conv2d_125", 0, 0, {}]]], "config": {"dtype": "float32", "activation": "sigmoid", "trainable": true, "name": "activation"}, "name": "activation"}, {"class_name": "Reshape", "inbound_nodes": [[["conv2d_126", 0, 0, {}]]], "config": {"dtype": "float32", "trainable": true, "name": "reshape", "target_shape": [-1]}, "name": "reshape"}, {"class_name": "Reshape", "inbound_nodes": [[["activation", 0, 0, {}]]], "config": {"dtype": "float32", "trainable": true, "name": "reshape_1", "target_shape": [-1]}, "name": "reshape_1"}], "input_layers": [["input_1", 0, 0]], "name": "data/hand_landmark.json", "output_layers": [["reshape", 0, 0], ["reshape_1", 0, 0]]}}, "backend": "tensorflow"}, "generatedBy": "keras v2.2.4-tf", "convertedBy": "TensorFlow.js Converter v1.2.6", "format": "layers-model"}